Week4/first_WEEK_model_trained2.pth (torch, 446509 bytes, 38 tensors)

features.0.weight f4 [3]
000000 00 00 80 3f 00 00 80 3f 00 00 80 3f
       1.0 1.0 1.0

features.0.bias f4 [3]
000000 00 00 00 00 00 00 00 00 00 00 00 00
       0.0 0.0 0.0

features.0.running_mean f4 [3]
000000 00 00 00 00 00 00 00 00 00 00 00 00
       0.0 0.0 0.0

features.0.running_var f4 [3]
000000 00 00 80 3f 00 00 80 3f 00 00 80 3f
       1.0 1.0 1.0

features.1.weight f4 [64, 3, 7, 7]
000000 18 dd 80 bc 3e 86 94 3d 39 3c 84 bd d0 53 dd bb
       -0.015730426 0.07252167 -0.06456799 -0.006754376
000010 6a 3d 97 3d 69 c6 25 bd dc 2b 6a 3d d0 81 a6 bd
       0.07384761 -0.04047242 0.057170734 -0.081302285
000020 cc 0a 74 bd 64 c2 90 3d 4e 59 3f bd 46 1f 87 3d
       -0.05958061 0.07068327 -0.046716027 0.06597762
000030 be 99 29 bd 9e 8e a6 bd 40 d3 71 3b a8 81 ee 3c
       -0.041406386 -0.08132671 0.0036899596 0.02911456
000040 e4 3d 74 3d b0 c9 97 3c 28 c9 c9 3c 10 06 7b 3c
       0.059629336 0.01852879 0.024632052 0.01532127
000050 f8 14 5c 3d 4d 0f 1c bd 06 62 9c 3d a0 3c dd 3c
       0.053730935 -0.03810053 0.07635884 0.027006447
000060 c0 af c2 bb 52 17 e3 bc 4c cc ec bc 06 56 c2 bc
       -0.005941361 -0.02772108 -0.02890601 -0.02372266
000070 50 71 d7 3b 50 49 43 3d e1 fe 8b bd 30 88 77 3d
       0.006574787 0.047677338 -0.06835724 0.060432613
000080 00 ea 34 3b a0 7d 33 3c 20 c3 49 3b 84 7d 04 bd
       0.0027605295 0.010955244 0.003078647 -0.032346264
000090 3c 0e 52 3d 98 b7 de 3c 87 2e 84 bd 2d 0e 29 bd
       0.051283106 0.027187154 -0.06454187 -0.041273285
0000a0 1d c8 03 bd 68 31 85 bc ad 61 94 bd e0 fc d2 3b
       -0.032173265 -0.01625891 -0.07245193 0.0064388365
0000b0 30 6a 77 3d 38 aa 34 3c e0 5f f2 bc 37 79 32 bd
       0.060404003 0.011026911 -0.029586732 -0.04357263
0000c0 cc d3 dd 3c 90 0f a6 3d e0 cd 6a 3d 38 45 66 bd
       0.027078532 0.08108437 0.057325244 -0.056218356
0000d0 92 9c 97 bd 34 2c 70 3d 28 ae 75 3d 80 a0 75 3d
       -0.0740291 0.058635905 0.05998054 0.059967518
0000e0 34 50 ec 3c f2 3d ee bc c0 fa 8d 3c 00 b6 db 3a
       0.028846838 -0.029082272 0.017331481 0.0016762614
0000f0 9c 1c e2 3c 58 3f 36 bc 55 09 93 bd d0 ad 85 3d
       0.027601533 -0.011123501 -0.07179514 0.06527293
000100 10 bc 12 bc ff a5 15 bd f8 6c 45 3d 00 ad 39 3d
       -0.00895597 -0.03653526 0.048199624 0.045331
000110 78 4b 00 bc dd fb 9a bd e4 a0 cc 3c 82 9b a1 bd
       -0.007830493 -0.0756757 0.024979062 -0.07890989
000120 c2 a2 93 3d 04 d9 08 bd a6 e8 a3 bd 58 22 b8 3c
       0.07208778 -0.033410087 -0.080033585 0.022477314
000130 88 22 78 3d cf d4 46 bd 68 02 3d 3d 50 92 f3 3b
       0.060579807 -0.048542794 0.046144873 0.0074332133
000140 a8 85 bd 3c 82 07 97 3d a0 d4 cc 3c de 3a 66 bd
       0.023135021 0.07374479 0.025003731 -0.056208484
000150 d0 ed 44 bc ba e2 83 3d c8 45 a5 bd a6 a1 20 3d
       -0.01201959 0.06439729 -0.0806995 0.03921666
000160 40 59 4a 3b a0 92 94 bc 60 c9 47 3d 38 2d 75 3d
       0.003087595 -0.018136322 0.04877603 0.059857577
000170 88 68 7b bc ea 93 bb bc a8 b8 77 bc 80 39 78 3d
       -0.015344746 -0.02289768 -0.015119709 0.06060171
000180 77 ac 33 bd 28 54 27 3d 1a e2 3d bd 69 12 24 bd
       -0.043865647 0.040851742 -0.046358205 -0.04005662
000190 64 36 3b 3d f4 3f 39 3d 74 49 8b bd 47 84 a4 bd
       0.045706168 0.045227006 -0.068011194 -0.080330424
0001a0 bc e6 fa 3c d0 dc 6c 3d 4c 69 83 bd f9 6f 0f bd
       0.0306276 0.05782777 -0.06416568 -0.035018895
0001b0 fd 9b 8e bd 24 b3 81 bc 2c d3 b9 3c 48 76 2b bc
       -0.06963346 -0.015832491 0.022683702 -0.010465212
0001c0 8c de f5 3c 52 a5 a5 3d 00 60 70 37 cc 81 85 bd
       0.030013345 0.08088173 1.43274665e-05 -0.065188974
0001d0 00 a6 68 3c 64 da 52 3d 30 47 9b bd 84 6a 85 3d
       0.014199734 0.051477805 -0.07581937 0.06514457
0001e0 3b eb 16 bd 48 42 10 3d 57 b9 42 bd 1c 6e 9a 3c
       -0.036845427 0.03521946 -0.047540035 0.018851332
0001f0 ec f6 3c 3d 90 b4 25 3d 90 0f c5 3b b4 24 1f 3d
       0.04613392 0.0404554 0.006013818 0.038853362
000200 28 ac 4e 3d 1e 26 e7 bc ae bb 93 3d ce f1 93 bd
       0.05045715 -0.028216418 0.072135314 -0.07223855
000210 28 a4 61 3c 1c ff 71 bd 80 53 1c bc 20 4e 9d bd
       0.013772048 -0.059081182 -0.009541392 -0.07680917
000220 8e e2 8b bd 16 cd 7e bd 61 b7 79 bd 90 1d 69 bc
       -0.06830321 -0.062207304 -0.0609659 -0.01422824
000230 c9 f9 5d bd f1 4b 54 bd 48 81 39 3d c4 97 78 bd
       -0.05419329 -0.051830236 0.045289308 -0.06069161
000240 00 aa 9e bb 30 41 83 3c 8c 7d f7 3c 98 28 24 3d
       -0.004842043 0.016022295 0.030211233 0.040077776
000250 1e 2b a5 bc d6 99 bb bc f8 66 93 bd 70 5f cd 3c
       -0.020162161 -0.022900503 -0.07197374 0.025069922
000260 d8 f2 45 3d 22 53 92 3d 93 b5 87 bd 64 54 91 3d
       0.048327297 0.071447626 -0.066264294 0.07096174
000270 fa b7 9c 3d 82 28 a5 3d fc ea c1 3c 5a a4 9b 3d
       0.07652278 0.08064367 0.02367162 0.07599707
000280 00 08 12 3d 19 85 50 bd 8c fb 82 bd a4 b0 4b bd
       0.03565216 -0.05090818 -0.06395635 -0.049729005
000290 00 8f 45 bd 70 9d 90 3b b4 c9 a5 3c 52 29 8a 3d
       -0.04823208 0.0044132993 0.020237781 0.067461625
0002a0 33 4c a2 bd 24 dc 20 3d d9 52 98 bd c6 71 cc bc
       -0.0792469 0.039272442 -0.07437677 -0.024956595
0002b0 9e 8b 2b 3d 00 e6 46 39 18 d4 e0 bc 16 45 d5 bc
       0.041881196 0.00018968433 -0.027444884 -0.02603392
0002c0 a4 d7 61 bd 7f 66 a4 bd 1c 0b c8 3c 34 1d ad bc
       -0.05513729 -0.08027362 0.02441936 -0.02113209
0002d0 fc f1 96 bd 00 14 04 3b cc cd a3 bd 80 99 bd 3b
       -0.073703736 0.0020153522 -0.07998237 0.005786121
0002e0 78 86 67 bd 5e b5 8e bd e3 32 90 bd 06 71 53 bd
       -0.056524724 -0.06968187 -0.07040956 -0.05162146
0002f0 50 1c 90 3c a1 f7 79 bd 50 56 26 3c 14 04 e3 bc
       0.017591625 -0.061027173 0.010152414 -0.027711906
000300 a8 c6 52 3c 44 a4 fc 3c 99 ac 03 bd b0 67 80 bb
       0.012864746 0.030840047 -0.032147024 -0.0039186105
000310 6d 07 4c bd 24 5f 9c 3c 84 fc 48 3d 40 30 e6 bb
       -0.04981177 0.019088335 0.049068943 -0.007024795
000320 32 14 aa bc 98 43 3b 3c e0 b0 cb 3c f8 8a 73 3d
       -0.020761583 0.01142969 0.024864614 0.059458703
000330 e0 fa 8c bc e6 61 1b bd 04 fe a5 3d 72 89 2d bd
       -0.01720947 -0.03793516 0.0810509 -0.042367406
000340 ac 53 81 3c e4 1c 03 3d 1a d7 cc bc 1b b2 98 bd
       0.015786968 0.032009974 -0.025004912 -0.07455846
000350 ee 72 86 3d 3c c5 dc 3c b3 f5 11 bd 08 14 74 bc
       0.0656489 0.026949517 -0.035634708 -0.014897354
000360 12 20 9c 3d 16 cc 1d bd 5a 42 9f 3d 8e 66 2c 3d
       0.076233044 -0.03852471 0.077763274 0.04208999
000370 e8 30 7c bd a0 b3 41 bb d2 ca 0b bd 4c 64 a1 bc
       -0.061570078 -0.0029556528 -0.03412897 -0.019701146
000380 30 38 97 bb 90 dd dd bb 6a 45 1c 3d 08 08 df 3c
       -0.0046148524 -0.006770797 0.038152136 0.02722551
000390 a2 d1 91 3d 80 6f 59 bc e4 c4 53 bd 48 e9 39 3d
       0.071200624 -0.013271213 -0.05170144 0.04538849
0003a0 e8 65 86 3c ca fa 22 3d 64 9b f1 3c 94 15 2c 3d
       0.016406015 0.039789952 0.029493041 0.042012766
0003b0 b0 a8 28 3c 20 a7 88 3c ca cb a3 3d e2 ba 98 bd
       0.0102941245 0.016681254 0.07997854 -0.0745752
0003c0 c8 e5 22 3d 79 0a 50 bd f8 a8 4c bc 40 47 8f 3b
       0.039769918 -0.050791238 -0.012491457 0.0043725073
0003d0 50 32 52 bc ea 46 65 bd 59 92 51 bd 68 17 77 bd
       -0.012829378 -0.055975832 -0.05116496 -0.060325056
0003e0 a2 3d e8 bc 04 0b 4e 3d fc 1f 35 3d 47 63 87 bd
       -0.028349701 0.050303474 0.044219956 -0.066107325
0003f0 c8 1f 3d 3d cc 28 4f 3d 46 a3 6c bd 70 2c eb bb
       0.046172887 0.050576016 -0.057772897 -0.007176928

features.1.bias f4 [64]
000000 f0 1c e8 3c 56 4c 6b bd 38 04 ef 3c c0 bb f5 3a
       0.028334111 -0.057445846 0.029176816 0.001874797
000010 60 f0 ac bb 20 79 d1 3b 9f b2 91 bd 06 1d 96 bd
       -0.0052776784 0.006392613 -0.071141474 -0.073297545
000020 a0 a1 f6 3b 3e a2 7b bd 28 20 48 3d ce 0f 1c 3d
       0.0075265914 -0.061434023 0.04885879 0.03810101
000030 28 ac fa 3c c0 6c 9e 3d 18 e9 84 bc a2 ba 07 bd
       0.030599669 0.07735586 -0.016224429 -0.03313697
000040 f0 53 4e 3d 0e c4 a1 3d 0e 09 eb bc 60 ed ac bb
       0.050373018 0.078987226 -0.028690841 -0.0052773207
000050 94 30 8c bd d8 3a 6c bc 2e de 80 bd 70 0a b2 3b
       -0.06845203 -0.014418326 -0.062923774 0.005433373
000060 0e 5f 79 bd f8 1d 4c 3d 48 10 65 bc f7 48 a1 bd
       -0.060881667 0.049833268 -0.0139809325 -0.07875245
000070 20 b2 b3 3b 88 de 01 bd 92 52 d8 bc 54 cd a2 3d
       0.0054838806 -0.031706363 -0.02640656 0.079493195
000080 a0 55 aa 3b a0 d0 a1 bb bc de 8e bd be 9e 95 3d
       0.0051981956 -0.0049382 -0.06976077 0.07305668
000090 1a d5 97 bd 9c 05 9e 3c f0 eb f6 bc 36 65 05 3d
       -0.07413693 0.019289784 -0.0301418 0.032567225
0000a0 d0 5f 69 3d 38 08 3c bc 7a 2c a2 3d 40 05 10 3d
       0.05697614 -0.011476569 0.079186395 0.035161257
0000b0 94 27 08 3d 78 b1 18 3d 68 38 88 bd 2a 2e 86 3d
       0.03324087 0.037278622 -0.06651384 0.06551774
0000c0 38 b1 6d 3c ec 28 a3 3c 88 11 34 3d e4 d2 88 bc
       0.014507584 0.019916974 0.04396203 -0.016702123
0000d0 f0 f3 6a 3d d4 24 4c 3d 7c a7 50 3d 29 fe 8a bd
       0.057361543 0.04983981 0.050940976 -0.067867585
0000e0 20 77 0f 3d 08 2a fc 3c 3a 3a e9 bc c8 32 4b 3d
       0.035025716 0.03078176 -0.028470147 0.049608976
0000f0 14 bd 9f 3c bb 30 85 bd 78 dc 13 3d 10 5b 92 bd
       0.01949934 -0.06503435 0.036098927 -0.07146275

features.4.weight f4 [64]
000000 00 00 80 3f 00 00 80 3f 00 00 80 3f 00 00 80 3f
       1.0 1.0 1.0 1.0
000010 00 00 80 3f 00 00 80 3f 00 00 80 3f 00 00 80 3f
       1.0 1.0 1.0 1.0
000020 00 00 80 3f 00 00 80 3f 00 00 80 3f 00 00 80 3f
       1.0 1.0 1.0 1.0
000030 00 00 80 3f 00 00 80 3f 00 00 80 3f 00 00 80 3f
       1.0 1.0 1.0 1.0
000040 00 00 80 3f 00 00 80 3f 00 00 80 3f 00 00 80 3f
       1.0 1.0 1.0 1.0
000050 00 00 80 3f 00 00 80 3f 00 00 80 3f 00 00 80 3f
       1.0 1.0 1.0 1.0
000060 00 00 80 3f 00 00 80 3f 00 00 80 3f 00 00 80 3f
       1.0 1.0 1.0 1.0
000070 00 00 80 3f 00 00 80 3f 00 00 80 3f 00 00 80 3f
       1.0 1.0 1.0 1.0
000080 00 00 80 3f 00 00 80 3f 00 00 80 3f 00 00 80 3f
       1.0 1.0 1.0 1.0
000090 00 00 80 3f 00 00 80 3f 00 00 80 3f 00 00 80 3f
       1.0 1.0 1.0 1.0
0000a0 00 00 80 3f 00 00 80 3f 00 00 80 3f 00 00 80 3f
       1.0 1.0 1.0 1.0
0000b0 00 00 80 3f 00 00 80 3f 00 00 80 3f 00 00 80 3f
       1.0 1.0 1.0 1.0
0000c0 00 00 80 3f 00 00 80 3f 00 00 80 3f 00 00 80 3f
       1.0 1.0 1.0 1.0
0000d0 00 00 80 3f 00 00 80 3f 00 00 80 3f 00 00 80 3f
       1.0 1.0 1.0 1.0
0000e0 00 00 80 3f 00 00 80 3f 00 00 80 3f 00 00 80 3f
       1.0 1.0 1.0 1.0
0000f0 00 00 80 3f 00 00 80 3f 00 00 80 3f 00 00 80 3f
       1.0 1.0 1.0 1.0

features.4.bias f4 [64]
000000 00 00 00 00 00 00 00 00 00 00 00 00 00 00 00 00
       0.0 0.0 0.0 0.0
000010 00 00 00 00 00 00 00 00 00 00 00 00 00 00 00 00
       0.0 0.0 0.0 0.0
000020 00 00 00 00 00 00 00 00 00 00 00 00 00 00 00 00
       0.0 0.0 0.0 0.0
000030 00 00 00 00 00 00 00 00 00 00 00 00 00 00 00 00
       0.0 0.0 0.0 0.0
000040 00 00 00 00 00 00 00 00 00 00 00 00 00 00 00 00
       0.0 0.0 0.0 0.0
000050 00 00 00 00 00 00 00 00 00 00 00 00 00 00 00 00
       0.0 0.0 0.0 0.0
000060 00 00 00 00 00 00 00 00 00 00 00 00 00 00 00 00
       0.0 0.0 0.0 0.0
000070 00 00 00 00 00 00 00 00 00 00 00 00 00 00 00 00
       0.0 0.0 0.0 0.0
000080 00 00 00 00 00 00 00 00 00 00 00 00 00 00 00 00
       0.0 0.0 0.0 0.0
000090 00 00 00 00 00 00 00 00 00 00 00 00 00 00 00 00
       0.0 0.0 0.0 0.0
0000a0 00 00 00 00 00 00 00 00 00 00 00 00 00 00 00 00
       0.0 0.0 0.0 0.0
0000b0 00 00 00 00 00 00 00 00 00 00 00 00 00 00 00 00
       0.0 0.0 0.0 0.0
0000c0 00 00 00 00 00 00 00 00 00 00 00 00 00 00 00 00
       0.0 0.0 0.0 0.0
0000d0 00 00 00 00 00 00 00 00 00 00 00 00 00 00 00 00
       0.0 0.0 0.0 0.0
0000e0 00 00 00 00 00 00 00 00 00 00 00 00 00 00 00 00
       0.0 0.0 0.0 0.0
0000f0 00 00 00 00 00 00 00 00 00 00 00 00 00 00 00 00
       0.0 0.0 0.0 0.0

features.5.weight f4 [64, 1, 3, 3]
000000 00 85 bd 3b d6 cf 9b be 40 13 04 3d 50 f4 39 be
       0.005783677 -0.30432004 0.03224492 -0.18159604
000010 d0 8f 75 be 70 23 37 be 60 97 37 bd 10 4a d7 bc
       -0.23980641 -0.17884612 -0.044822097 -0.026280433
000020 36 df 6b be 00 5e 58 ba bc df a6 3d fe 3d 5a be
       -0.23034367 -0.0008253753 0.08148143 -0.2131271
000030 56 14 37 3e 84 0b 9f be 08 73 48 be 60 ea 89 3d
       0.17878851 -0.31063473 -0.19575131 0.067341566
000040 ea 4e 81 be 78 2f 59 bd ca fe 7d 3e c0 4c da bd
       -0.2525552 -0.053023785 0.24804226 -0.1065917
000050 2c 59 82 be 10 a3 a8 3d 70 44 cf bd a6 b1 2e 3e
       -0.25458658 0.08234227 -0.10120475 0.17059955
000060 d6 a6 d4 bd f8 fb 5a bd 60 04 1c 3d 0e 60 3f be
       -0.10383384 -0.053462952 0.03809011 -0.18688986
000070 b6 dd ba bd 0f 28 98 be 8e b3 44 3e 78 90 66 bd
       -0.09124319 -0.29718062 0.1920912 -0.05629012
000080 80 23 54 3b 60 0c 2d bc 7a 38 a3 be a8 66 10 be
       0.0032369792 -0.010562032 -0.31879026 -0.1410166
000090 27 5f 9c 3e f2 e5 66 3e 8d ba 88 3e a8 a8 34 3d
       0.30541345 0.22548655 0.26704827 0.044106156
0000a0 ac 46 d2 bd 14 24 c1 3d 06 f0 6e be 0c 32 fc 3d
       -0.10267386 0.094307095 -0.23333749 0.12314233
0000b0 e6 b5 cf bd a2 f0 22 3e 7a 72 3d 3e d0 27 2b be
       -0.10142116 0.15912107 0.185007 -0.16714406
0000c0 c0 78 0d 3d fc e5 b8 3d e6 53 8f be c0 2e 5c be
       0.034538984 0.09028241 -0.27993697 -0.21502209
0000d0 7e aa 1a be c8 83 50 bd ce 5c 22 be 13 17 92 be
       -0.151041 -0.050906926 -0.15855715 -0.2853323
0000e0 76 b7 09 be 90 40 f9 3d 13 d0 a1 3e f1 ef 8f 3e
       -0.13448891 0.121705174 0.3160406 0.28112748
0000f0 c9 d3 8a 3e ce 22 69 3e 50 b8 e7 bd 50 16 1d be
       0.27114704 0.22767183 -0.11314452 -0.15340543
000100 19 7f 8c 3e 38 37 17 bd 4c fa 85 3d 50 e5 c3 bc
       0.27440718 -0.036917895 0.06541881 -0.023913056
000110 40 e7 7d 3d a5 7b 9e 3e cc b7 e6 3d df bf 8a be
       0.061988115 0.30953708 0.11265525 -0.2709951
000120 b1 cb 82 3e cd 82 9a 3e f0 83 be 3c 86 5e 29 be
       0.2554603 0.30177918 0.023256272 -0.16539964
000130 56 ff 04 3e 78 1d 49 3d 32 6c 3d 3e b0 ec ee 3d
       0.12988028 0.04910037 0.18498304 0.11666238
000140 d8 c9 25 bd 8b 8a 1d be 44 b2 8a be db fa 1e be
       -0.040475696 -0.15384881 -0.2708913 -0.15525381
000150 7a dd 58 3e 26 3b 40 be 7a 55 28 3e 54 43 a7 3d
       0.21178237 -0.18772563 0.16438857 0.08167139
000160 f0 05 b9 3c 74 e6 99 3d 42 e9 98 be 26 15 f5 bd
       0.022585839 0.075146586 -0.29865462 -0.11966924
000170 30 9f d8 bc 0c 0c a9 bd 88 82 1e bd 68 10 0e 3e
       -0.026443094 -0.08254251 -0.038698703 0.13873446
000180 d6 a8 04 be d6 35 c0 bd 3d e3 a9 3e 74 98 82 bd
       -0.12955031 -0.093852684 0.33181182 -0.063767344
000190 53 1d 49 be d4 4c c2 3d b0 be 9c 3d 60 c0 1d 3c
       -0.19640093 0.0948731 0.07653558 0.009628385
0001a0 6e c6 68 be 2a f1 9d be 8a 59 72 3e 55 6b 9b 3e
       -0.22731945 -0.30848056 0.23666969 0.30355325
0001b0 be ed 10 be 03 01 90 be 30 60 49 be 96 3e 26 be
       -0.14153191 -0.28125772 -0.19665599 -0.16234812
0001c0 84 f2 c6 3d b0 17 75 be b0 61 8d be d2 1f 1d 3e
       0.09714225 -0.23934817 -0.27613592 0.1534417
0001d0 38 f8 23 bd b6 c1 7f 3e d9 01 a4 3e 6e a9 3a 3e
       -0.04003164 0.24976239 0.3203266 0.18228695
0001e0 78 66 7e be 4c 74 f0 bd c0 0f fe 3b 28 a2 24 be
       -0.24843776 -0.11740932 0.0077533424 -0.16077483
0001f0 0e e4 7e be f0 b2 9f 3d 9a 53 73 3e 74 e7 e2 3d
       -0.24891683 0.077978015 0.2376236 0.110793024
000200 50 aa 99 bc de 51 02 be 28 03 17 3e 72 c8 2b 3e
       -0.01875797 -0.12726542 0.14747298 0.16775683
000210 8a d2 49 3e ec 46 b0 3d d0 d8 d1 3d 66 ef 50 be
       0.1970922 0.08607277 0.10246432 -0.20403823
000220 20 2e b7 bd f4 43 ac 3d 9a 52 59 3e a7 0f 9a 3e
       -0.089443445 0.084113985 0.21222916 0.30090067
000230 8b 31 27 be b4 81 8d bd 49 7c 8c 3e 3d 8e 98 3e
       -0.16327493 -0.069095045 0.27438572 0.2979602
000240 00 81 c6 bc 8e d0 a7 be d3 be 81 3e 09 6c 8d 3e
       -0.024231434 -0.32776302 0.253409 0.27621487
000250 80 e5 59 bb c6 54 63 3e 80 f0 72 bd d4 f6 d4 3d
       -0.0033248365 0.22200307 -0.05931139 0.10398641
000260 20 11 cd 3d 8b 7a 26 be 52 25 68 3e b8 61 10 be
       0.10013032 -0.16257684 0.22670487 -0.14099777
000270 00 55 eb 3a 20 01 99 bd 19 da a2 3e 34 8c ac 3d
       0.0017954409 -0.07470918 0.3180702 0.08425179
000280 a7 4c 9c be ea 9f 54 3e 53 45 1e be 40 b6 df 3c
       -0.3052723 0.20764127 -0.15456133 0.027308583
000290 58 34 40 bd 1e 9e 3f be 32 2d 9d be 45 e3 8a 3e
       -0.04692492 -0.1871266 -0.30698544 0.27126518
0002a0 42 79 36 3e c0 5d ef 3c 7b 23 4d be 14 8b c0 3d
       0.17819694 0.029219508 -0.20033066 0.09401527
0002b0 a2 0e a4 be 4b 7d a9 be 0a eb 2a 3e e8 62 71 bd
       -0.32042414 -0.33103403 0.16691223 -0.058932215
0002c0 50 ef 9f bd 30 62 86 3d 00 7b c3 3b 52 6e 88 be
       -0.07809317 0.065616965 0.0059655905 -0.26646668
0002d0 56 e7 81 be 10 35 16 3e d9 e3 9f 3e 0c 65 be 3d
       -0.25371808 0.14668679 0.3122852 0.09296617
0002e0 ce 58 8e be c0 74 f5 3c f9 6d 9b 3e 0c 24 f7 3d
       -0.27802128 0.029962897 0.3035734 0.12067422
0002f0 35 5c 94 3e 54 8d a0 3d a1 d7 8f 3e 93 68 17 be
       0.28976598 0.07839456 0.280942 -0.14785986
000300 40 44 1f 3d 0c 8a 82 3d c8 cf 3d 3d 77 6e 85 3e
       0.038883448 0.063739866 0.046340734 0.2606084
000310 d2 da 10 3e b6 f6 b2 bd d3 4a 9f be 28 0a 0b 3e
       0.14145973 -0.087384626 -0.31111774 0.13578093
000320 33 63 1f be 16 4a d1 bd c3 77 2e be b2 a8 3a 3e
       -0.15565185 -0.10219209 -0.17037873 0.18228415
000330 b2 be 47 3e a8 41 1c be 06 af 9b be 78 bf 04 be
       0.19506338 -0.15259421 -0.3040697 -0.12963665
000340 6a 93 3b 3e f4 ef 9e bd c8 11 28 3e d3 8d 9b be
       0.18317953 -0.07760611 0.16413033 -0.3038164
000350 12 8d 74 3e 04 51 cb 3d 40 28 13 3e b0 5a e4 3c
       0.23881939 0.09927562 0.14370823 0.027875274
000360 f6 29 17 be 78 96 14 bd ca f3 4c 3e 20 36 e7 bd
       -0.147621 -0.03627631 0.20014873 -0.112896204
000370 6e e4 4d be ea d9 a6 be 56 ea 54 3e a8 8d 8f be
       -0.2010667 -0.3258813 0.20792517 -0.28037763
000380 44 96 a4 be e8 09 2f 3d 30 b0 cb 3c 6a 6b 2d 3e
       -0.32145894 0.042734057 0.024864286 0.16935506
000390 d6 6e de bd 18 a5 24 3e da 22 94 be 74 7d 9d be
       -0.10860984 0.16078603 -0.2893284 -0.30759776
0003a0 ec b9 f0 bd 3d 4a 9c 3e 70 53 e0 bd 66 8a 3e 3e
       -0.11754212 0.3052539 -0.109534144 0.18607482
0003b0 18 53 51 bd cc 51 96 bd 4e e9 4d be b8 d7 07 3d
       -0.051104635 -0.0733982 -0.2010853 0.03316471
0003c0 10 3b bb 3c a0 75 ad bd b3 0b a0 be 80 53 0c 3c
       0.022855312 -0.08469701 -0.31258926 0.00856483
0003d0 c6 31 23 be c0 fd 93 be c7 fb 98 be 6a a7 62 3e
       -0.15936956 -0.28904533 -0.2987959 0.22134176
0003e0 10 16 8d 3c 46 b3 a3 be db 08 92 3e 3f 77 a4 3e
       0.017222434 -0.31972712 0.2852238 0.32122228
0003f0 fc 2e fd bd 92 b5 68 3e dd 8f 9a 3e a2 fb 38 3e
       -0.12362477 0.22725514 0.30187884 0.1806474

features.5.bias f4 [64]
000000 56 db 74 be 0f 7d a4 3e 48 ef 9d be 3e 0b 74 3e
       -0.23911795 0.32126662 -0.3084662 0.23832414
000010 2a fc 6c 3e f8 4d 1f bd 21 00 88 3e 54 0e e2 3d
       0.23143068 -0.038892716 0.26562598 0.11037889
000020 36 ce 5f 3e 16 f7 eb bd 00 23 ef bb 54 ea a0 3d
       0.21856007 -0.11521737 -0.0072978735 0.078571945
000030 be c7 6d 3e 38 4b 73 bd 8a b6 92 be cb c3 39 be
       0.23220727 -0.059397906 -0.2865489 -0.18141095
000040 0c 87 e4 bd 60 ae 5a 3c 83 91 58 be 58 78 09 be
       -0.11158571 0.013347238 -0.21149258 -0.13424814
000050 6a e1 19 3e 14 53 ec 3d 16 d4 2b be 90 05 a2 3c
       0.15027395 0.115392834 -0.16780123 0.019778043
000060 fb 91 64 be ee 42 11 be 5b 8e 85 3e e3 23 02 be
       -0.22321312 -0.14185688 0.2608517 -0.12709002
000070 33 34 8f be 3a 40 5f 3e 70 47 98 bc f8 b0 47 be
       -0.27969512 0.21801844 -0.018588752 -0.19501102
000080 80 51 95 bc a6 da 25 3e 30 bb 8b 3d e8 b3 41 3d
       -0.018227339 0.16196689 0.068228126 0.047290713
000090 6b 61 83 be 4b 79 94 3e e0 bf 6a be 23 0c 55 be
       -0.25660262 0.2899879 -0.22924757 -0.20805411
0000a0 00 24 bf bc c0 2e ff bc 54 16 8c be c0 c6 39 bd
       -0.023332596 -0.031150222 -0.27360785 -0.04535556
0000b0 be 29 4e be 46 d2 79 3e 68 17 1e 3e fe 59 45 3e
       -0.20133111 0.24396619 0.15438616 0.1927261
0000c0 d0 1a 03 3e 6a 21 4d 3e 4e 2a 66 be 90 a3 28 be
       0.12803197 0.20032278 -0.22477075 -0.16468644
0000d0 54 39 a2 bd f3 9a 22 be bb 2b 9e 3e b2 9d 54 3e
       -0.07921091 -0.15879421 0.3089274 0.20763281
0000e0 7d e6 a7 3e b0 93 95 be 50 00 8d be 7e 06 3f 3e
       0.32793036 -0.2921424 -0.275393 0.1865482
0000f0 0b 53 a6 3e 63 1f 8e be 4f 22 87 3e 8b 01 9d be
       0.32485232 -0.2775832 0.26393363 -0.3066524

features.6.weight f4 [128, 64, 1, 1]
000000 44 9a 68 3d 6c 94 7d bd d8 fd 1f 3d 0a 38 e7 3d
       0.056787744 -0.061909124 0.039060444 0.112899855
000010 46 21 cf 3d 20 b4 31 3d 10 37 1f 3c d6 be dd 3d
       0.10113768 0.04338467 0.009717718 0.10827415
000020 94 1f ad bd 10 7f 87 bd c0 cb 32 3d 10 59 71 3c
       -0.08453289 -0.06616032 0.043651342 0.014730707
000030 50 03 9d 3c 40 fe cb bc 70 af 38 bc a2 05 cf bd
       0.019166619 -0.02490151 -0.011272296 -0.10108496
000040 00 cd c4 bc a4 83 e3 3d 82 ac bd bd 20 3b bd bc
       -0.024023533 0.11109093 -0.09261419 -0.023099482
000050 ac 1e 10 3d a0 f9 4c bd 80 25 5b 3b ae 90 e3 bd
       0.0351855 -0.05004275 0.00334391 -0.1111158
000060 00 03 1b bd d2 61 ff 3d a8 5c f1 bc f0 0e 33 3d
       -0.037844658 0.124698296 -0.029463127 0.043715417
000070 38 87 05 bd e4 5b 0c 3d f4 d2 60 bd b4 00 0a bd
       -0.032599658 0.03426732 -0.05488868 -0.033692077
000080 be 1d 83 3d a0 b1 ed bc b4 d9 35 3d 78 69 75 3d
       0.06402157 -0.029015362 0.04439707 0.059915036
000090 f0 1e d7 3c 7c 28 ac 3d 92 c0 b1 bd fc ba 3c bd
       0.02625987 0.08406159 -0.08679308 -0.04607676
0000a0 e0 a7 c3 bb 24 c3 43 bd 14 a7 69 bd 76 cf c5 bd
       -0.00597094 -0.047793522 -0.057044104 -0.09658711
0000b0 0e 22 ba 3d fc e4 1a 3d 10 2b d6 3c 08 2b bb bc
       0.09088527 0.037816033 0.02614358 -0.022847667
0000c0 38 80 b0 3d 9a f2 f4 bd 48 19 61 3d 68 ba a9 bd
       0.08618206 -0.11960335 0.05495575 -0.08287507
0000d0 b6 8a bf 3d 20 b5 4d 3d 6c 27 29 3d 7e 51 9f 3d
       0.09352629 0.050221562 0.04129736 0.07779215
0000e0 76 4f 94 bd 54 17 a4 bd 7a 88 b7 3d 1c c9 9f 3d
       -0.072417185 -0.08012262 0.08961578 0.078020304
0000f0 56 d9 dd bd fc fb e1 bd 64 e3 99 3d 08 58 44 bd
       -0.10832469 -0.1103439 0.075140744 -0.047935516
000100 0c f6 bb 3d 40 dd 5e 3d 84 ba bd bd 58 50 1a bd
       0.09177789 0.05441022 -0.09264091 -0.037674278
000110 98 48 ed bd 4c 07 25 bd 44 a3 e8 3d 82 36 ee 3d
       -0.11586112 -0.040290162 0.113592654 0.1163149
000120 f8 46 be bd 60 1b f7 bd 76 c6 a1 3d 20 b3 a0 bd
       -0.0929088 -0.12065768 0.078991815 -0.078466654
000130 40 f3 80 bc 00 18 ae 38 96 9f f8 3d 56 49 82 3d
       -0.01574099 8.301437e-05 0.121398136 0.06361644
000140 bc 38 b5 bd 60 74 d4 bc 70 51 c8 bc 90 e1 15 3d
       -0.08848712 -0.025934398 -0.024452895 0.036592066
000150 7a ed e4 3d 58 c0 a0 bd 48 6b b1 bc 20 91 f9 bc
       0.111781076 -0.07849187 -0.021657601 -0.030464709
000160 e0 b6 8e 3c 3c 55 b0 bd c8 4d 80 3d fc 0a 92 bd
       0.017421186 -0.08610007 0.062648356 -0.07131001
000170 be 46 a5 3d 86 f8 d2 3d e6 71 9b 3d c8 e0 0f 3d
       0.080701336 0.10301308 0.07590084 0.035126477
000180 98 a0 5c 3d f0 76 33 3d 18 55 16 3d d0 a5 ed 3c
       0.05386409 0.0438146 0.036702245 0.02900973
000190 38 62 e9 bc 68 93 06 3d 60 b6 da 3d 34 9c b3 bd
       -0.028489217 0.03285542 0.106793165 -0.08770028
0001a0 b4 ee 2e bd 18 ff 3a 3d 72 be e5 3d ee 9f fd 3d
       -0.042708114 0.045653433 0.11217965 0.1238402
0001b0 f0 80 d1 bc a0 50 78 bc 7a ff f0 bd 18 e3 82 bc
       -0.025574178 -0.015155941 -0.11767478 -0.015977427
0001c0 56 c3 ce 3d 30 ac 89 bd 40 6e 10 bc 3c 3b 0a 3d
       0.10095851 -0.06722295 -0.008815348 0.033747897
0001d0 00 ef b2 3a 9e f3 81 bd ec 00 96 bd 68 0f b3 bc
       0.001365155 -0.063452944 -0.073243946 -0.021857932
0001e0 b4 ec d1 bd 0e f0 bd bd 2c df 77 3d a8 fe 8f 3c
       -0.10250226 -0.092743024 0.060515568 0.017577484
0001f0 a0 94 c8 3d fc 5e 56 bd e4 c9 17 bd 48 e5 09 3d
       0.09793973 -0.052336678 -0.037057772 0.033665925
000200 a4 81 96 3d 78 50 63 bd 64 45 6e 3d e0 70 c0 bb
       0.07348946 -0.055496663 0.058171645 -0.0058728307
000210 a8 c8 8e 3d e6 d2 d9 bd ea dc 95 3d be 12 f2 bd
       0.06971866 -0.10635929 0.07317527 -0.11819981
000220 82 0d a3 3d d4 a9 3e 3d d6 df ee 3d f8 7a b8 3c
       0.07961561 0.04654868 0.11663787 0.022519574
000230 00 bd 89 3b 92 9b d1 3d 1a 97 92 bd 08 ba 4c 3d
       0.0042034388 0.10234751 -0.071577266 0.0499821
000240 9e ae 8c 3d 18 42 2f bd 24 23 c8 bd b8 52 4a 3d
       0.06869243 -0.04278764 -0.097723275 0.049395293
000250 86 e5 96 3d 96 88 eb bd c6 f2 e4 bd c6 a2 81 bd
       0.07367997 -0.11500661 -0.11179118 -0.06329875
000260 30 6e 63 bc 9c 94 9e bd bc fc d5 3d d0 85 ca bd
       -0.013881251 -0.07743189 0.10448596 -0.09888804
000270 04 b7 68 bd 50 a3 06 bd a4 af ab 3d 7e 1e b1 3d
       -0.056815162 -0.03287059 0.0838311 0.08648394
000280 40 f1 ef 3b dc 32 f1 3d a2 bc bf 3d 60 a4 d4 3d
       0.0073224604 0.11777279 0.09362151 0.103829145
000290 04 ca 81 bd 20 03 7c 3d 6a b6 cc 3d 78 bc d4 bd
       -0.063373595 0.061526418 0.0999573 -0.1038751
0002a0 38 c6 55 bd 24 9a 22 bd 0c 15 4b bd 68 2c bd bc
       -0.05219099 -0.03969778 -0.04958062 -0.023092464
0002b0 ac 33 eb 3d a6 3d 9e 3d 8a 6f fc bd 40 a2 23 3d
       0.11484465 0.07726602 -0.12325962 0.039949656
0002c0 6c e6 f3 bd fc 09 58 3d 30 ca db 3d 84 ba 27 bd
       -0.11909184 0.052743897 0.107319236 -0.04094936
0002d0 6e b4 e4 bd 00 a5 2c 3b c0 3e cf bb 78 55 e4 3c
       -0.11167227 0.0026343465 -0.006324619 0.027872786
0002e0 80 4f b5 bb 58 86 5a 3d 7c 3e 53 3d 10 d2 89 3d
       -0.005533159 0.053350776 0.05157326 0.06729519
0002f0 a4 17 fa 3d 1c 8b 45 3d 08 64 1f bd 00 ca da bd
       0.1221154 0.04822837 -0.038913757 -0.1068306
000300 2c 84 64 3d f0 b2 6f 3d 94 50 f1 bd 08 f2 da bd
       0.05579011 0.058520257 -0.11782947 -0.10690695
000310 4e 19 9d 3d b8 53 86 3d 30 48 aa bd c4 ad 4f 3d
       0.07670842 0.06558937 -0.0831455 0.050702825
000320 e0 73 ff bb 3c ad 45 3d 78 97 4c bd 68 bb 9b bd
       -0.007795796 0.048260912 -0.04994914 -0.07604104
000330 00 e2 44 bd 50 44 eb 3c 0c 05 49 3d 4a 87 f7 bd
       -0.048067093 0.028719097 0.04907708 -0.12086351
000340 14 40 49 bd 44 04 db 3d 54 39 c2 bd 84 98 ad bd
       -0.049133375 0.10694173 -0.09483591 -0.08476356
000350 d4 0f 92 3d 38 10 bf bd 6c ac d7 bd 30 a4 11 bc
       0.07131925 -0.09329265 -0.10530934 -0.008889243
000360 c8 76 bb bd 00 5f 15 3a 9a 0f f9 3d 0e 1d 85 3d
       -0.09153515 0.0005698055 0.12161179 0.06499682
000370 ec d2 cf 3d 66 00 ac 3d d8 09 76 bd a0 cd e8 3d
       0.10147652 0.083985135 -0.06006798 0.11367345
000380 0c 16 38 3d 00 1f 1a 3a 9e 7a fd 3d 80 59 27 bc
       0.0449429 0.0005879253 0.12376903 -0.01021421
000390 20 f9 b1 3d 94 69 64 3d 6e d0 bb 3d 08 a5 cb 3c
       0.08690095 0.05576475 0.09170614 0.024858966
0003a0 f4 12 e0 bd c4 b6 a4 bd 7c 4b 63 3d c0 b2 20 3c
       -0.10941115 -0.08042672 0.05549191 0.009808242
0003b0 7e b9 c0 bd 44 84 f6 bd a6 b0 f2 3d d4 28 f5 bd
       -0.0941038 -0.120369464 0.11850099 -0.11970678
0003c0 70 93 aa bc a8 d2 ba bd 6e ae 85 3d 38 17 cf 3c
       -0.020822257 -0.09122211 0.065274104 0.025279626
0003d0 10 f8 05 3c 4c ab de bd 00 d2 3b 3b fe 08 82 bd
       0.0081768185 -0.10872516 0.0028659105 -0.063493714
0003e0 d0 b5 91 3c 68 13 35 bd b4 23 2e 3d ae 43 fe 3d
       0.01778689 -0.04420796 0.042514518 0.124152526
0003f0 04 63 92 bd b0 0e c3 3d a8 c4 7d 3d d0 e4 35 bd
       -0.07147792 0.09524286 0.061955124 -0.044407666

features.6.bias f4 [128]
000000 40 bc 48 3d 50 0c f9 bd c0 c6 4f bb a0 1f cd 3c
       0.049007654 -0.121605515 -0.0031704158 0.025039494
000010 70 2e e6 3d 3a cc d8 3d ba 0e bc 3d 4a 3d c6 bd
       0.11239326 0.10585828 0.09182496 -0.09679659
000020 82 7c ef bd 28 9e 5e 3d 8a c6 dd 3d 46 91 f9 3d
       -0.1169367 0.05435005 0.10828884 0.12185912
000030 6c 83 e5 bd 26 8b de bd 04 9d 44 3d 60 ea d4 bd
       -0.11206707 -0.10866384 0.048001304 -0.10396266
000040 20 eb 9d bc c0 d4 65 bd c0 b7 87 3c 20 91 69 3c
       -0.019277155 -0.056111097 0.016567111 0.014255792
000050 14 de 6a bd 62 6a b4 bd 98 0f c1 3c a0 4d 93 bc
       -0.057340696 -0.088093534 0.023567006 -0.01798135
000060 64 0a b1 3d b8 9f 2f 3d 04 2c ce bd e2 f1 80 3d
       0.0864456 0.04287693 -0.10066989 0.062961355
000070 08 b5 9f 3d b4 f7 76 bd 08 be fa bd e8 69 4e bd
       0.07798201 -0.06029482 -0.12243277 -0.05039397
000080 ec eb b8 bd 40 5d 4e 3d 18 bd c8 3c 28 c0 91 3c
       -0.090293735 0.0503819 0.02450423 0.017791823
000090 30 d2 29 3d ce 56 85 bd 6e da c8 3d 36 6e f8 3d
       0.041460216 -0.06510697 0.09807287 0.12130396
0000a0 e6 8a f8 bd e6 7a c2 3d 34 8e 9a 3d 28 ab 9b 3d
       -0.12135868 0.09496097 0.07546654 0.07601005
0000b0 4a de 98 3d 3c dc d4 3d c0 5b 47 3d a4 c1 f1 3d
       0.07464273 0.10393569 0.048671484 0.11804512
0000c0 10 7d e8 3c 00 e6 27 ba 60 73 27 3c d4 f9 3a 3d
       0.028379947 -0.0006404817 0.010220379 0.04564841
0000d0 a4 10 25 3d 80 91 e7 bd 00 54 f5 ba a0 cb ae 3b
       0.040299073 -0.11307049 -0.001871705 0.0053343326
0000e0 9c e8 45 3d 94 fa a6 bd bc 1a 7a 3d 80 3b 65 bc
       0.048317537 -0.08153263 0.061060652 -0.013991237
0000f0 ea 0c b5 bd b0 50 93 bc 60 36 9f bd e2 51 e0 3d
       -0.08840354 -0.01798281 -0.07774043 0.10953118
000100 1e 2e 9d bd c0 e6 0f bd 58 ee ec 3c f2 5a d6 3d
       -0.07674812 -0.03513217 0.028922245 0.10466565
000110 e8 5c c8 bd ea 3e fe 3d 94 f7 d0 bd 04 b4 d4 3d
       -0.097833455 0.12414344 -0.10203472 0.10385898
000120 18 f2 55 bd 10 9d b6 bd 02 ef d9 3d 06 da eb bd
       -0.05223283 -0.08916676 0.1064129 -0.11516194
000130 cc 25 77 3d 40 c4 b0 bb 70 fc eb bc 4c 65 2e 3d
       0.06033878 -0.0053944886 -0.028806895 0.042577073
000140 34 87 e4 bd e4 88 61 bd 38 79 99 bd 44 50 84 bd
       -0.111586004 -0.05506219 -0.07493824 -0.06460622
000150 10 69 ae 3c 98 5e 8a bc 40 df 7a 3c d4 a2 eb 3d
       0.021290332 -0.016890809 0.015312016 0.115056664
000160 02 ad c6 bd a4 12 8e 3d 50 c8 6c bc be 52 c3 bd
       -0.09700967 0.06937149 -0.014452055 -0.09537266
000170 9c 25 50 bd 00 e7 6e 3d be 07 c2 bd d8 87 ef bc
       -0.050817117 0.058325768 -0.09474133 -0.02923958
000180 40 fe df 3d 14 34 26 bd 46 9d b9 bd ce bb d7 3d
       0.10937166 -0.04057701 -0.09063201 0.10533868
000190 e0 52 01 bc 6c 1c ef bd 68 be d4 bd a8 88 5c bd
       -0.007893294 -0.11675343 -0.103878796 -0.053841263
0001a0 20 b6 22 3d 5e 89 a6 bd 6c 37 bb 3d d4 d2 b4 bd
       0.03972447 -0.081316695 0.0914143 -0.08829275
0001b0 b0 54 dd bc 50 5a 4f 3d 18 20 c3 bc c4 b5 82 3d
       -0.027017921 0.050623238 -0.023819014 0.06382325
0001c0 5c b6 69 bd 8a 53 e7 3d 44 e3 4a 3d 60 ab f3 3c
       -0.057058677 0.11295231 0.049533144 0.029744804
0001d0 5c 5e b7 3d b0 85 bf bd 78 14 9b bd 00 4c 16 3a
       0.089535445 -0.09351671 -0.075722635 0.0005733371
0001e0 b4 c9 f4 3d da d5 be bd 70 5b 15 bd 98 62 b2 3d
       0.11952534 -0.09318133 -0.036464155 0.087102115
0001f0 10 c6 67 3c 08 e2 92 bc 88 89 86 bc 30 3a ea 3d
       0.014146343 -0.017930046 -0.016423002 0.1143688

features.9.weight f4 [128]
000000 00 00 80 3f 00 00 80 3f 00 00 80 3f 00 00 80 3f
       1.0 1.0 1.0 1.0
000010 00 00 80 3f 00 00 80 3f 00 00 80 3f 00 00 80 3f
       1.0 1.0 1.0 1.0
000020 00 00 80 3f 00 00 80 3f 00 00 80 3f 00 00 80 3f
       1.0 1.0 1.0 1.0
000030 00 00 80 3f 00 00 80 3f 00 00 80 3f 00 00 80 3f
       1.0 1.0 1.0 1.0
000040 00 00 80 3f 00 00 80 3f 00 00 80 3f 00 00 80 3f
       1.0 1.0 1.0 1.0
000050 00 00 80 3f 00 00 80 3f 00 00 80 3f 00 00 80 3f
       1.0 1.0 1.0 1.0
000060 00 00 80 3f 00 00 80 3f 00 00 80 3f 00 00 80 3f
       1.0 1.0 1.0 1.0
000070 00 00 80 3f 00 00 80 3f 00 00 80 3f 00 00 80 3f
       1.0 1.0 1.0 1.0
000080 00 00 80 3f 00 00 80 3f 00 00 80 3f 00 00 80 3f
       1.0 1.0 1.0 1.0
000090 00 00 80 3f 00 00 80 3f 00 00 80 3f 00 00 80 3f
       1.0 1.0 1.0 1.0
0000a0 00 00 80 3f 00 00 80 3f 00 00 80 3f 00 00 80 3f
       1.0 1.0 1.0 1.0
0000b0 00 00 80 3f 00 00 80 3f 00 00 80 3f 00 00 80 3f
       1.0 1.0 1.0 1.0
0000c0 00 00 80 3f 00 00 80 3f 00 00 80 3f 00 00 80 3f
       1.0 1.0 1.0 1.0
0000d0 00 00 80 3f 00 00 80 3f 00 00 80 3f 00 00 80 3f
       1.0 1.0 1.0 1.0
0000e0 00 00 80 3f 00 00 80 3f 00 00 80 3f 00 00 80 3f
       1.0 1.0 1.0 1.0
0000f0 00 00 80 3f 00 00 80 3f 00 00 80 3f 00 00 80 3f
       1.0 1.0 1.0 1.0
000100 00 00 80 3f 00 00 80 3f 00 00 80 3f 00 00 80 3f
       1.0 1.0 1.0 1.0
000110 00 00 80 3f 00 00 80 3f 00 00 80 3f 00 00 80 3f
       1.0 1.0 1.0 1.0
000120 00 00 80 3f 00 00 80 3f 00 00 80 3f 00 00 80 3f
       1.0 1.0 1.0 1.0
000130 00 00 80 3f 00 00 80 3f 00 00 80 3f 00 00 80 3f
       1.0 1.0 1.0 1.0
000140 00 00 80 3f 00 00 80 3f 00 00 80 3f 00 00 80 3f
       1.0 1.0 1.0 1.0
000150 00 00 80 3f 00 00 80 3f 00 00 80 3f 00 00 80 3f
       1.0 1.0 1.0 1.0
000160 00 00 80 3f 00 00 80 3f 00 00 80 3f 00 00 80 3f
       1.0 1.0 1.0 1.0
000170 00 00 80 3f 00 00 80 3f 00 00 80 3f 00 00 80 3f
       1.0 1.0 1.0 1.0
000180 00 00 80 3f 00 00 80 3f 00 00 80 3f 00 00 80 3f
       1.0 1.0 1.0 1.0
000190 00 00 80 3f 00 00 80 3f 00 00 80 3f 00 00 80 3f
       1.0 1.0 1.0 1.0
0001a0 00 00 80 3f 00 00 80 3f 00 00 80 3f 00 00 80 3f
       1.0 1.0 1.0 1.0
0001b0 00 00 80 3f 00 00 80 3f 00 00 80 3f 00 00 80 3f
       1.0 1.0 1.0 1.0
0001c0 00 00 80 3f 00 00 80 3f 00 00 80 3f 00 00 80 3f
       1.0 1.0 1.0 1.0
0001d0 00 00 80 3f 00 00 80 3f 00 00 80 3f 00 00 80 3f
       1.0 1.0 1.0 1.0
0001e0 00 00 80 3f 00 00 80 3f 00 00 80 3f 00 00 80 3f
       1.0 1.0 1.0 1.0
0001f0 00 00 80 3f 00 00 80 3f 00 00 80 3f 00 00 80 3f
       1.0 1.0 1.0 1.0

features.9.bias f4 [128]
000000 00 00 00 00 00 00 00 00 00 00 00 00 00 00 00 00
       0.0 0.0 0.0 0.0
000010 00 00 00 00 00 00 00 00 00 00 00 00 00 00 00 00
       0.0 0.0 0.0 0.0
000020 00 00 00 00 00 00 00 00 00 00 00 00 00 00 00 00
       0.0 0.0 0.0 0.0
000030 00 00 00 00 00 00 00 00 00 00 00 00 00 00 00 00
       0.0 0.0 0.0 0.0
000040 00 00 00 00 00 00 00 00 00 00 00 00 00 00 00 00
       0.0 0.0 0.0 0.0
000050 00 00 00 00 00 00 00 00 00 00 00 00 00 00 00 00
       0.0 0.0 0.0 0.0
000060 00 00 00 00 00 00 00 00 00 00 00 00 00 00 00 00
       0.0 0.0 0.0 0.0
000070 00 00 00 00 00 00 00 00 00 00 00 00 00 00 00 00
       0.0 0.0 0.0 0.0
000080 00 00 00 00 00 00 00 00 00 00 00 00 00 00 00 00
       0.0 0.0 0.0 0.0
000090 00 00 00 00 00 00 00 00 00 00 00 00 00 00 00 00
       0.0 0.0 0.0 0.0
0000a0 00 00 00 00 00 00 00 00 00 00 00 00 00 00 00 00
       0.0 0.0 0.0 0.0
0000b0 00 00 00 00 00 00 00 00 00 00 00 00 00 00 00 00
       0.0 0.0 0.0 0.0
0000c0 00 00 00 00 00 00 00 00 00 00 00 00 00 00 00 00
       0.0 0.0 0.0 0.0
0000d0 00 00 00 00 00 00 00 00 00 00 00 00 00 00 00 00
       0.0 0.0 0.0 0.0
0000e0 00 00 00 00 00 00 00 00 00 00 00 00 00 00 00 00
       0.0 0.0 0.0 0.0
0000f0 00 00 00 00 00 00 00 00 00 00 00 00 00 00 00 00
       0.0 0.0 0.0 0.0
000100 00 00 00 00 00 00 00 00 00 00 00 00 00 00 00 00
       0.0 0.0 0.0 0.0
000110 00 00 00 00 00 00 00 00 00 00 00 00 00 00 00 00
       0.0 0.0 0.0 0.0
000120 00 00 00 00 00 00 00 00 00 00 00 00 00 00 00 00
       0.0 0.0 0.0 0.0
000130 00 00 00 00 00 00 00 00 00 00 00 00 00 00 00 00
       0.0 0.0 0.0 0.0
000140 00 00 00 00 00 00 00 00 00 00 00 00 00 00 00 00
       0.0 0.0 0.0 0.0
000150 00 00 00 00 00 00 00 00 00 00 00 00 00 00 00 00
       0.0 0.0 0.0 0.0
000160 00 00 00 00 00 00 00 00 00 00 00 00 00 00 00 00
       0.0 0.0 0.0 0.0
000170 00 00 00 00 00 00 00 00 00 00 00 00 00 00 00 00
       0.0 0.0 0.0 0.0
000180 00 00 00 00 00 00 00 00 00 00 00 00 00 00 00 00
       0.0 0.0 0.0 0.0
000190 00 00 00 00 00 00 00 00 00 00 00 00 00 00 00 00
       0.0 0.0 0.0 0.0
0001a0 00 00 00 00 00 00 00 00 00 00 00 00 00 00 00 00
       0.0 0.0 0.0 0.0
0001b0 00 00 00 00 00 00 00 00 00 00 00 00 00 00 00 00
       0.0 0.0 0.0 0.0
0001c0 00 00 00 00 00 00 00 00 00 00 00 00 00 00 00 00
       0.0 0.0 0.0 0.0
0001d0 00 00 00 00 00 00 00 00 00 00 00 00 00 00 00 00
       0.0 0.0 0.0 0.0
0001e0 00 00 00 00 00 00 00 00 00 00 00 00 00 00 00 00
       0.0 0.0 0.0 0.0
0001f0 00 00 00 00 00 00 00 00 00 00 00 00 00 00 00 00
       0.0 0.0 0.0 0.0

features.10.weight f4 [128, 1, 3, 3]
000000 89 b0 a3 3e 12 6e 53 3e cc 90 c0 3d 50 cb b4 3c
       0.31970623 0.20647457 0.09402618 0.022069603
000010 ae 18 0f 3e 2b 00 3f be 5e 9b 47 be 97 1c 93 3e
       0.13974258 -0.18652408 -0.19492862 0.2873275
000020 c8 b4 9d be 50 37 8f bc 60 4b 61 bc 62 32 34 3e
       -0.30801988 -0.01748243 -0.013750881 0.17597345
000030 58 7f 7c bd 3e 6b 3f be e0 40 34 3c 30 03 1b 3e
       -0.061644882 -0.18693253 0.0110017955 0.15137935
000040 18 72 26 3e 0d e3 a7 3e b2 a0 1b 3e ca 55 50 3e
       0.16254461 0.32790413 0.15198019 0.20345226
000050 96 de 86 be 60 ea 47 be 02 4e 69 3e 0b 90 aa be
       -0.26341695 -0.19523 0.22783664 -0.3331302
000060 f6 99 d0 bd 0a 03 0f 3e 5e eb 9a be 94 b5 f7 3d
       -0.10185616 0.13966003 -0.30257696 0.1209518
000070 e6 3b 46 3e b0 b9 ac bd 7c a1 c5 3d 49 9b aa 3e
       0.19358787 -0.084338546 0.09649941 0.33321598
000080 55 e0 87 3e bb 06 3f be 36 d7 e9 bd 9c 12 a2 3d
       0.2653834 -0.18654911 -0.11418001 0.07913706
000090 5a 40 16 3e f1 b6 9e 3e 99 b6 87 3e 9e b6 2d be
       0.14672986 0.30998948 0.26506498 -0.16964194
0000a0 40 47 68 bd 38 1c 92 be 18 a2 68 bd 40 31 65 bd
       -0.056708574 -0.28537154 -0.05679521 -0.05595517
0000b0 b8 91 7e bd 38 41 77 bd e8 15 13 bd 1c 33 b8 3d
       -0.062150687 -0.06036493 -0.035909563 0.08994123
0000c0 1c 47 97 bd 55 e7 90 3e 95 70 90 3e 96 12 80 be
       -0.0738661 0.28301492 0.28210893 -0.2501418
0000d0 d2 c7 8d be 3e ab 44 be b4 fe 9e bd ea e9 0f 3e
       -0.27691513 -0.19205949 -0.077634245 0.14054075
0000e0 26 58 94 be f0 d1 e9 3c 3a 10 a6 be 3a c6 2b 3e
       -0.28973502 0.028542489 -0.32434255 0.16774836
0000f0 ee 8c 2b 3e 24 74 c0 3d a8 08 1f bd 8e 9a 02 3e
       0.16752979 0.09397152 -0.038826615 0.1275427
000100 a8 93 42 3d 60 04 27 bd 02 81 16 3e 93 31 8b 3e
       0.047504097 -0.040775657 0.1469765 0.2718626
000110 3a 9d 5c 3e 00 28 b4 3d 00 c3 19 bc 4e ea 08 be
       0.21544352 0.08796692 -0.0093848705 -0.1337063
000120 9b d5 1b be 09 53 82 3e 94 fc 95 3d 2b 93 31 be
       -0.15218203 0.25453976 0.07323566 -0.17341296
000130 da 2f 44 3e fb 5d 8b be c6 ad 6c be f0 13 bd bd
       0.19158879 -0.2722014 -0.23113164 -0.092323184
000140 93 92 a4 3e 6c f9 bd bd 7a 08 77 3e 60 eb 70 bd
       0.32143077 -0.09276089 0.24124327 -0.05881822
000150 10 1d c9 bc 40 ea f5 bc de 87 40 3e b6 d0 39 be
       -0.02454999 -0.030018926 0.18801829 -0.18146023
000160 34 bd 94 3d 48 b4 7c 3d b3 66 72 be f8 9c 1f 3d
       0.0726265 0.061695367 -0.23671989 0.038968056
000170 bb d9 0c be 46 a2 3d be 56 74 5f 3e a0 f5 e4 bd
       -0.13754933 -0.18518934 0.21821722 -0.11179662
000180 2d a0 91 3e 13 af a7 be 48 53 0b bd f4 cb a8 3d
       0.28442517 -0.3275076 -0.03401497 0.08242026
000190 bc 97 a7 bd fe a7 1b 3e c9 61 92 3e ea 9a 76 3e
       -0.08183238 0.15200803 0.2859023 0.24082533
0001a0 40 4d 77 be 96 f4 1a 3e c0 b3 71 3d fa 18 7f 3e
       -0.24150562 0.15132365 0.059009314 0.24911872
0001b0 a1 ed 9a 3e 48 e7 52 3d b0 18 f6 3d 18 a9 5b bd
       0.3025942 0.0514901 0.120164275 -0.053628057
0001c0 40 42 c2 bb 6b dd 04 be 30 d6 aa bd 31 d5 8f 3e
       -0.005928308 -0.12975089 -0.08341634 0.2809234
0001d0 56 b8 77 be 98 ec 6c be b2 17 6f 3e 40 8c f6 3d
       -0.24191412 -0.23137128 0.23348883 0.12038469
0001e0 62 7b 5c 3e c0 9c 8d bc 64 b8 ab 3d 6e 1c 6e 3e
       0.21531442 -0.017286658 0.08384779 0.23253033
0001f0 a0 38 52 bd 37 5d a7 be 0f ad 92 be ec 6e 93 3d
       -0.051323533 -0.32688305 -0.28647658 0.07198891
000200 af 76 87 be 50 03 90 be bc 3f fb bd f1 44 9f 3e
       -0.26457736 -0.28127527 -0.12268016 0.31107286
000210 09 98 8a 3e 40 9e 12 3e 78 f5 83 be ec db ef bd
       0.2706912 0.1431818 -0.25773215 -0.11711869
000220 b8 8b 5a be 58 f1 7a 3d 6b 58 2f be 93 a6 7a be
       -0.21342361 0.06126532 -0.17123573 -0.24477606
000230 a9 57 a2 3e 7b 0f 04 be 5d 32 8f 3e b6 98 40 3e
       0.31707504 -0.1289653 0.27968112 0.18808255
000240 de 80 9e be c0 aa a0 3d 76 a1 50 3e 32 a5 49 3e
       -0.30957693 0.07845068 0.20374092 0.19691923
000250 13 b0 9b be ea cc 2d 3e 43 f8 57 be e4 90 a6 bd
       -0.3040777 0.169727 -0.21090798 -0.081331044
000260 5c e8 d7 3d 20 2a 8b bd ab 66 36 be 6d eb 99 3e
       0.10542366 -0.06795144 -0.17812602 0.30062428
000270 cd 19 a0 3e 21 d6 81 3e e8 83 72 3d c8 76 43 bd
       0.31269684 0.2535868 0.059207827 -0.0477207
000280 a6 e2 98 be d0 27 5b be 98 96 0d bd 79 b7 9b 3e
       -0.2986042 -0.21401906 -0.034567446 0.30413416
000290 f3 8f 85 3e 98 a6 23 bd 9f c1 97 be 10 5b f6 3c
       0.26086387 -0.039953798 -0.2963991 0.030072719
0002a0 00 7c 06 3b b0 7e c3 bc c6 a9 96 be 1a 7a 49 3e
       0.0020520687 -0.02386412 -0.29426402 0.19675484
0002b0 c0 7b 69 bd 80 4a 60 3b ad 27 91 3e 7b 18 3a be
       -0.057002783 0.0034224093 0.28350583 -0.18173401
0002c0 9e eb 7c be 39 2e a4 3e 4b a8 27 be cb bf 15 be
       -0.24699256 0.32066515 -0.16372792 -0.14623944
0002d0 88 d8 44 bd c0 26 b5 3b 5e 8f 2f 3e 63 77 a0 be
       -0.048058063 0.005528301 0.17144534 -0.31341085
0002e0 90 a9 a3 3d da 44 4f 3e ad 06 84 3e c6 5e 1b be
       0.07991326 0.20241109 0.25786343 -0.15172872
0002f0 b9 93 9b 3e b0 6c fa bd 00 77 35 3c 5c ed 86 3d
       0.3038614 -0.12227762 0.011075735 0.065882415
000300 b6 71 60 be 9a f3 40 3e 38 67 00 be 00 71 f5 bb
       -0.21918377 0.18842927 -0.12539375 -0.0074902773
000310 08 4b 2d be 36 e9 2d be e0 7f 4b be 28 25 28 3d
       -0.16923153 -0.16983494 -0.19872999 0.04105106
000320 a7 fd 94 3e 3a 9d 2a 3e dd 0a 90 3e a6 5c 3c be
       0.2909977 0.1666154 0.28133288 -0.18394718
000330 d9 fe 97 3e 4b 7e 4d be 11 b0 85 3e 48 f8 24 3d
       0.2968662 -0.20067708 0.2611089 0.040275842
000340 c3 80 78 be 2b 9f 53 be 3e d3 24 3e 08 24 0b be
       -0.24267869 -0.20666187 0.16096207 -0.13587964
000350 20 a6 9c be a5 97 9b 3e fa 6b 13 3e da 3c 7a 3e
       -0.30595493 0.30389133 0.14396659 0.24437276
000360 cc 66 ba 3d 20 86 6b 3c 2a e3 6f 3e 3c 7b b1 bd
       0.09101638 0.01437524 0.234265 -0.08666083
000370 21 df 86 3e 50 23 bb bd 00 24 c4 3a e0 13 03 bd
       0.2634211 -0.09137595 0.0014964342 -0.032001376
000380 7c 26 8e bd 8c 46 a8 3d 57 76 8c 3e 29 14 84 3e
       -0.06940934 0.08216581 0.27434036 0.2579663
000390 20 87 3e bd 04 73 a8 3d cc 91 9c be 02 be 43 3e
       -0.046515584 0.082250625 -0.30579984 0.19115451
0003a0 60 86 5b 3d 3e 04 6d be 1e ac 27 be be 42 49 3e
       0.053594947 -0.2314615 -0.16374251 0.19654366
0003b0 a0 dd 03 3d 26 b9 49 be c4 87 8e bd 53 5f 35 be
       0.03219378 -0.19699535 -0.06959489 -0.17712145
0003c0 02 ea 90 be 11 71 8e 3e bb 3d a6 3e 8e 11 44 be
       -0.28303534 0.27820638 0.32468972 -0.19147322
0003d0 6a c3 65 3e 3e 06 07 3e 9b 67 2e be a3 98 24 be
       0.22437826 0.13185975 -0.1703171 -0.16073851
0003e0 6a 00 16 3e 36 d7 46 be 40 a3 8e 3b 8b 57 13 be
       0.14648595 -0.19418034 0.004352957 -0.14388864
0003f0 f8 5d 13 3e 8e 6c 55 be 0e 09 0d be dc 3f aa 3d
       0.14391315 -0.20842192 -0.13772985 0.083129615

features.10.bias f4 [128]
000000 2a 57 38 3e 00 85 ab 3b 9c 96 ec 3d 06 49 1e 3e
       0.18002 0.0052343607 0.11552164 0.15457544
000010 ba 15 39 3e ce 9e 31 3e d3 d1 5e be eb be 27 be
       0.18074694 0.17345735 -0.21759729 -0.16381423
000020 44 b3 a4 3d cc 42 ef bd 74 c1 9f bd 10 89 e1 3c
       0.08042005 -0.11682662 -0.0780057 0.027531177
000030 e0 bf 13 3d 28 4d 27 be d2 25 99 be 48 e4 6e be
       0.036071658 -0.16338027 -0.29911667 -0.2332927
000040 c8 ac 68 3d 8c ec 93 3d 14 0d 84 be ae 9c 36 3e
       0.056805402 0.07222852 -0.25791228 0.17833206
000050 df 88 87 3e c4 00 82 3d 06 f0 f3 bd a8 60 30 3d
       0.26471612 0.06347802 -0.11911015 0.04306093
000060 73 87 9a 3e 00 5c 4f bc 11 1e 82 3e 4d d9 91 3e
       0.30181465 -0.012656212 0.25413564 0.284861
000070 25 75 96 3e f0 b2 1c be 20 21 47 bc a0 3b 30 3c
       0.2938625 -0.15302634 -0.012153894 0.010756403
000080 a7 e1 a6 3e d8 c4 68 be 68 47 07 3d 80 f0 b9 bd
       0.32594034 -0.2273134 0.033027083 -0.09079075
000090 44 8b 81 be 80 ab 24 bd 50 a8 c5 bc d9 38 a3 3e
       -0.25301564 -0.040202618 -0.02412811 0.3187931
0000a0 c6 d1 08 3e 90 a1 e0 3c 20 18 8b bd 56 be 02 3e
       0.13361272 0.027420789 -0.06791711 0.1276792
0000b0 ae 2f 8e be 91 97 9f 3e 53 e8 07 be 10 c7 b4 bd
       -0.27770752 0.31170323 -0.13272218 -0.08827031
0000c0 38 9b 7c 3d a8 d8 7e 3d ca 39 4e 3e 00 63 96 3b
       0.061671466 0.06221834 0.20139232 0.0045894384
0000d0 a0 e7 36 bc a8 19 91 be d1 63 99 3e c6 48 21 be
       -0.011163622 -0.28339887 0.29958966 -0.15750417
0000e0 94 1b 97 be 00 15 28 3c 26 43 0f 3e 78 69 64 3d
       -0.29513228 0.010258913 0.13990459 0.055764645
0000f0 46 5c 03 be 7a 42 76 3e 5c 10 97 bd a0 3f 7a bc
       -0.12828168 0.24048796 -0.07376167 -0.015273958
000100 1a 67 5e 3e a0 57 0a bd 60 0e 05 be a8 af 47 3d
       0.21719018 -0.033774972 -0.12993765 0.048751503
000110 20 17 3f bd a0 36 af 3d 00 35 80 3d 10 e2 de bd
       -0.046652913 0.08555341 0.06260109 -0.10882962
000120 3c e9 8b be 3b 11 32 be e7 8f 82 be 4b 5e 9d be
       -0.2732638 -0.17389385 -0.25500414 -0.30736002
000130 84 94 81 be 46 49 45 be 97 30 85 3e 8a a8 45 3e
       -0.2530862 -0.19266233 0.26013634 0.19302574
000140 68 b5 0c 3e da ef 68 3e a2 0e 3c 3e 93 f7 9d 3e
       0.13741076 0.22747746 0.18364957 0.30852947
000150 26 f0 d3 bd 13 de 9d be 80 10 3e bc 7b 75 80 3e
       -0.10348539 -0.30833492 -0.011600614 0.2508963
000160 a0 d6 92 3d d0 41 8d be 50 9f f8 bc 4c 6b aa bd
       0.07169843 -0.27589273 -0.030349404 -0.083212465
000170 ae e3 5b be 70 f0 07 3e 31 d7 86 3e 28 f5 0d 3d
       -0.21473572 0.13275313 0.26336053 0.034657627
000180 90 d7 93 3c 76 20 c3 bd a8 eb 51 3d 1d de a0 3e
       0.018047124 -0.09527676 0.05125013 0.3141946
000190 c8 90 4e 3d 4f 15 9d be 50 a1 9b 3d 68 e6 5f 3d
       0.050431043 -0.3068032 0.07599127 0.054663092
0001a0 bf be 97 be a0 6a 75 3d 0a 4b 4b 3e ef bf a1 3e
       -0.29637715 0.05991614 0.19852844 0.31591746
0001b0 a0 5a 1a bd 08 86 71 bd 96 ca 76 3e 70 7a b9 bd
       -0.037684083 -0.058965713 0.24100718 -0.09056556
0001c0 f2 44 45 3e 80 90 a4 3d 13 3c 26 be 30 52 b8 3c
       0.19264582 0.08035374 -0.16233854 0.022500128
0001d0 44 bd 9d 3d 6a e5 51 3e 7e 63 27 3e cc cf af 3d
       0.07702115 0.20497671 0.16346547 0.08584556
0001e0 68 0a 6e bd b0 bc 4d be f6 a0 72 be 02 83 18 3e
       -0.058115393 -0.2009151 -0.23694214 0.14893726
0001f0 49 88 8c 3e 1a 6f 4b 3e e8 ca 12 3d 8c 7a a0 3d
       0.27447727 0.198666 0.035838038 0.07835874
