Week4/first_WEEK_model_trained.pth (torch, 446509 bytes, 38 tensors)

features.0.weight f4 [3]
1.0 1.0 1.0
00000000: 0000 803f 0000 803f 0000 803f

features.0.bias f4 [3]
0.0 0.0 0.0
00000000: 0000 0000 0000 0000 0000 0000

features.0.running_mean f4 [3]
0.0 0.0 0.0
00000000: 0000 0000 0000 0000 0000 0000

features.0.running_var f4 [3]
1.0 1.0 1.0
00000000: 0000 803f 0000 803f 0000 803f

features.1.weight f4 [64, 3, 7, 7]
-0.0548528 -0.04542722 -0.068580784 -0.06341771 -0.07547724 -0.041047215 -0.06267063 0.02814082
-0.06645306 0.05089976 0.014101103 0.073142886 0.07950848 -0.004480049 0.03183081 -0.04532983
0.056560144 -0.034047324 -0.064667195 0.038560092 -0.023041327 0.04015033 0.027667865 0.03850256
0.03296288 -0.04925439 -0.022018474 -0.029951647 0.022962555 -0.021776933 0.012411706 -0.051589407
0.017513953 -0.014687121 0.04451394 0.0028185993 0.033408366 -0.05545325 -0.052655466 -0.06434755
0.034632184 -0.0028186813 0.06373569 0.027344152 0.019727893 0.009598359 -0.021115895 -0.06651156
0.0034228116 0.03754767 0.061642766 0.021330617 0.08155067 0.031640917 -0.0045847893 -0.040781636
0.0004223734 0.05337982 0.00020726025 -0.024479948 -0.0059965327 0.051813707 0.0015806556 0.069884226
-0.07705676 0.053776786 -0.06725879 0.07561231 -0.07704 0.04990861 0.059758633 0.024983734
0.024716258 -0.010960653 -0.06150856 -0.06485943 -0.07179794 0.054258764 -0.06525653 -0.0525912
0.07426661 0.019333847 0.02651877 -0.03893612 -0.0082661435 -0.022820272 -0.015770853 0.046143845
-0.012066342 -0.08046732 -0.055673435 0.02492445 -0.051174536 -0.0322017 -0.02679117 0.07832596
0.0233377 0.046565592 -0.056629863 -0.049585767 0.0017450228 -0.03126103 -0.012817845 -0.059947155
-0.0063842535 -0.0132563785 0.0676519 0.052888244 0.015903503 -0.0056182444 -0.05441092 0.03218416
0.074151024 -0.009279273 0.01974976 0.0025698245 -0.0483056 -0.055516373 0.0038232803 0.0080367625
0.032311544 -0.067078605 -0.042490907 -0.025578354 -0.06421755 0.08100693 0.021588035 -0.047303375
0.003000997 -0.050476823 -0.025489531 0.04449293 0.0636037 -0.050414693 -0.064511776 0.027168863
-0.06698891 -0.017511323 -0.0711858 0.06898081 0.056512177 1.8417835e-05 -0.035823505 -0.042166375
0.07597737 -0.060012914 -0.045947187 0.024609223 0.009840898 0.07437864 -0.063099146 -0.042276833
0.07334204 0.023023553 0.07654187 0.03911253 -0.0366449 -0.080558114 0.034916483 -0.034498114
-0.023602776 0.075810686 -0.06873996 -0.0046045333 -0.066535726 0.07047206 -0.0733915 -0.031134669
0.026584752 0.018603958 -0.060994953 0.030814953 0.020056032 -0.05240316 0.045958385 -0.029905286
-0.07744851 -0.011481948 0.0030508563 -0.048191637 -0.050143804 -0.025830068 0.06499377 -0.07285233
0.05922337 -0.008872487 -0.03585372 -0.024603374 -0.039079 -0.007959202 -0.014585614 -0.07686196
-0.057352677 0.040437177 0.051793277 -0.022744711 0.07676615 -0.02370637 0.070560664 0.07467748
-0.008927241 0.049518213 -0.06628749 -0.05854761 -0.04657481 -0.038936894 0.06221178 -0.034039173
-0.057320043 -0.024481885 0.035209835 0.024493106 0.05197087 -0.004103631 0.015072137 -0.028232463
-0.010083355 0.0635196 0.03483417 0.029459849 -0.07944695 0.068294525 0.019346334 -0.058331564
-0.034506656 0.011438601 0.042509116 -0.063531116 0.032830536 0.012697689 0.04109139 0.0057199
-0.07763502 0.044102058 0.04794067 -0.037437603 0.061562687 0.05914101 0.027632289 -0.05748027
-0.024751011 -0.062143397 -0.048893187 0.016913064 0.036199816 0.013129234 -0.021598157 -0.007252477
0.068950236 -0.0155188665 -0.07328904 -0.03386481 0.012725778 0.082460895 0.016647607 -0.040771704
00000000: 54ad 60bd e511 3abd 1574 8cbd 25e1 81bd
00000010: d093 9abd 2021 28bd 7659 80bd 9487 e63c
00000020: 8b18 88bd 447c 503d 5008 673c f0cb 953d
00000030: 58d5 a23d 60cd 92bb 0661 023d c6ab 39bd
00000040: 9cab 673d 3575 0bbd 3c70 84bd 30f1 1d3d
00000050: 2ac1 bcbc ac74 243d b8a7 e23c dcb4 1d3d
00000060: 1604 073d f9be 49bd 1660 b4bc 285d f5bc
00000070: f81b bc3c 8a65 b2bc 785a 4b3c 6a4f 53bd
00000080: 6c79 8f3c 40a2 70bc 4054 363d 40b8 383b
00000090: 36d7 083d f222 63bd 42ad 57bd a6c8 83bd
000000a0: 7ada 0d3d a0b9 38bb dc87 823d d800 e03c
000000b0: 649c a13c 7042 1d3c 3efb acbc 3637 88bd
000000c0: 4051 603b 96cb 193d 207d 7c3d 8cbd ae3c
000000d0: 0a04 a73d e899 013d 003c 96bb a50a 27bd
000000e0: 0072 dd39 cca4 5a3d 0054 5939 2c8a c8bc
000000f0: 907e c4bb 9c3a 543d 002e cf3a 761f 8f3d
00000100: efcf 9dbd 0c45 5c3d fabe 89bd a0da 9a3d
00000110: 26c7 9dbd f86c 4c3d 78c5 743d b0aa cc3c
00000120: c079 ca3c 5094 33bc 66f0 7bbd 05d5 84bd
00000130: cc0a 93bd 703e 5e3d 37a5 85bd df69 57bd
00000140: 1819 983d 0462 9e3c e43d d93c 7b7b 1fbd
00000150: b86e 07bc 94f1 babc e031 81bc 5401 3d3d
00000160: e8b1 45bc 0dcc a4bd d409 64bd 5c2e cc3c
00000170: 649c 51bd eee5 03bd 2879 dbbc 5c69 a03d
00000180: b42e bf3c 90bb 3e3d b7f4 67bd 721a 4bbd
00000190: 40b9 e43a 910b 00bd f001 52bc 268b 75bd
000001a0: 0033 d1bb 4831 59bc 148d 8a3d 58a1 583d
000001b0: 1048 823c 4019 b8bb fcdd 5ebd 8ad3 033d
000001c0: 7edc 973d 1808 18bc 40ca a13c 806a 283b
000001d0: 18dc 45bd 2365 63bd 0090 7a3b a0ac 033c
000001e0: 1c59 043d 8260 89bd f20a 2ebd b289 d1bc
000001f0: 7e84 83bd f6e6 a53d 64d9 b03c 2fc1 41bd
00000200: 60ac 443b c9c0 4ebd 6ccf d0bc 383e 363d
00000210: a842 823d a37f 4ebd c01e 84bd 3c91 de3c
00000220: 7b31 89bd e873 8fbc dcc9 91bd d045 8d3d
00000230: 5079 673d 0080 9a37 abbb 12bd a6b6 2cbd
00000240: 069a 9b3d 1ad0 75bd 1e33 3cbd 4899 c93c
00000250: b83b 213c d453 983d 203a 81bd 792a 2dbd
00000260: 5a34 963d e49b bc3c fcc1 9c3d 7634 203d
00000270: f618 16bd a7fb a4bd 9604 0f3d e54d 0dbd
00000280: 9c5a c1bc a242 9b3d 89c7 8cbd a0e1 96bb
00000290: e243 88bd a853 903d 484e 96bd 220e ffbc
000002a0: 44c8 d93c 5467 983c d8d5 79bd a46f fc3c
000002b0: 8c4c a43c b2a4 56bd dc3e 3c3d eefb f4bc
000002c0: 539d 9ebd c81e 3cbc e0f0 473b 9864 45bd
000002d0: 9763 4dbd 9499 d3bc 741b 853d 9a33 95bd
000002e0: 3494 723d e85d 11bc 5adb 12bd 048d c9bc
000002f0: 4d11 20bd 5067 02bc 80f8 6ebc ce69 9dbd
00000300: a4ea 6abd 74a1 253d 3025 543d 1e53 babc
00000310: 9237 9d3d dc33 c2bc 1c82 903d 82f0 983d
00000320: 9043 12bc 9cd3 4a3d bcc1 87bd 9ecf 6fbd
00000330: 3ac5 3ebd 4b7c 1fbd c8d1 7e3d a96c 0bbd
00000340: 6cc8 6abd 3c8e c8bc 3038 103d c4a5 c83c
00000350: 68df 543d c077 86bb 20f1 763c c447 e7bc
00000360: a834 25bc 9016 823d 46ae 0e3d c855 f13c
00000370: 15b5 a2bd 00de 8b3d 347c 9e3c 14ed 6ebd
00000380: da56 0dbd f868 3b3c 0a1e 2e3d 9a1c 82bd
00000390: 5079 063d f809 503c 724f 283d 006e bb3b
000003a0: 1cff 9ebd 5ca4 343d 705d 443d 2c58 19bd
000003b0: 2829 7c3d d83d 723d 1c5d e23c 6e70 6bbd
000003c0: a2c2 cabc 138a 7ebd 3944 48bd 448d 8a3c
000003d0: 4246 143d 001c 573c 9eee b0bc 30a6 edbb
000003e0: c835 8d3d d842 7ebc 9018 96bd d4b5 0abd
000003f0: c87f 503c 42e1 a83d 9060 883c 3b00 27bd

features.1.bias f4 [64]
-0.026396316 0.00817363 -0.081988424 0.034498863 -0.04412331 0.021766618 -0.06520335 0.07075325
0.039784946 0.048288748 -0.012663186 -0.052606717 -0.038975812 -0.007575877 0.046191424 0.039244734
-0.075822584 -0.029738396 -0.020216983 0.07819414 -0.08241993 -0.03816124 0.07269226 0.033698723
-0.08210089 0.038038887 0.018054202 -0.04777724 -0.030942142 -0.040484548 0.060379326 -0.0571488
0.06054613 0.044677243 -0.033695076 -0.00280191 -0.07959387 -0.06551087 -0.02397585 0.027551271
0.031068988 -0.047813207 0.05606875 0.080677 0.055698425 0.06878348 0.020434938 -0.04652155
0.021440595 0.0824053 -0.058326207 -0.025061604 -0.037019663 -0.023599051 0.073721156 -0.015687414
0.016490005 -0.062015608 -0.039524343 -0.07033521 0.032646462 -0.019499235 -0.028772231 -0.07989914
00000000: 163d d8bc b0ea 053c 8ce9 a7bd ae4e 0d3d
00000010: a5ba 34bd e84f b23c 5589 85bd 14e7 903d
00000020: 8af5 223d 6cca 453d 4079 4fbc 247a 57bd
00000030: 1aa5 1fbd 103f f8bb 3833 3d3d 16bf 203d
00000040: df48 9bbd f09d f3bc 169e a5bc 4024 a03d
00000050: c8cb a8bd f64e 1cbd aedf 943d ac07 0a3d
00000060: 8324 a8bd aace 1b3d 68e6 933c 11b2 43bd
00000070: 607a fdbc 20d3 25bd 5050 773d dc14 6abd
00000080: 38ff 773d 7cff 363d d903 0abd 40a0 37bb
00000090: 1c02 a3bd 902a 86bd 0069 c4bc 34b3 e13c
000000a0: 6484 fe3c c8d7 43bd 58a8 653d fc39 a53d
000000b0: 0824 643d 5ade 8c3d 2c67 a73c 618d 3ebd
000000c0: 30a4 af3c 1cc4 a83d 76e7 6ebd fe4d cdbc
000000d0: eea1 17bd cc52 c1bc 1efb 963d e482 80bc
000000e0: 0c16 873c 1404 7ebd 47e4 21bd e80b 90bd
000000f0: 4cb8 053d dcbc 9fbc beb3 ebbc 29a2 a3bd

features.4.weight f4 [64]
1.0 1.0 1.0 1.0 1.0 1.0 1.0 1.0
1.0 1.0 1.0 1.0 1.0 1.0 1.0 1.0
1.0 1.0 1.0 1.0 1.0 1.0 1.0 1.0
1.0 1.0 1.0 1.0 1.0 1.0 1.0 1.0
1.0 1.0 1.0 1.0 1.0 1.0 1.0 1.0
1.0 1.0 1.0 1.0 1.0 1.0 1.0 1.0
1.0 1.0 1.0 1.0 1.0 1.0 1.0 1.0
1.0 1.0 1.0 1.0 1.0 1.0 1.0 1.0
00000000: 0000 803f 0000 803f 0000 803f 0000 803f
00000010: 0000 803f 0000 803f 0000 803f 0000 803f
00000020: 0000 803f 0000 803f 0000 803f 0000 803f
00000030: 0000 803f 0000 803f 0000 803f 0000 803f
00000040: 0000 803f 0000 803f 0000 803f 0000 803f
00000050: 0000 803f 0000 803f 0000 803f 0000 803f
00000060: 0000 803f 0000 803f 0000 803f 0000 803f
00000070: 0000 803f 0000 803f 0000 803f 0000 803f
00000080: 0000 803f 0000 803f 0000 803f 0000 803f
00000090: 0000 803f 0000 803f 0000 803f 0000 803f
000000a0: 0000 803f 0000 803f 0000 803f 0000 803f
000000b0: 0000 803f 0000 803f 0000 803f 0000 803f
000000c0: 0000 803f 0000 803f 0000 803f 0000 803f
000000d0: 0000 803f 0000 803f 0000 803f 0000 803f
000000e0: 0000 803f 0000 803f 0000 803f 0000 803f
000000f0: 0000 803f 0000 803f 0000 803f 0000 803f

features.4.bias f4 [64]
0.0 0.0 0.0 0.0 0.0 0.0 0.0 0.0
0.0 0.0 0.0 0.0 0.0 0.0 0.0 0.0
0.0 0.0 0.0 0.0 0.0 0.0 0.0 0.0
0.0 0.0 0.0 0.0 0.0 0.0 0.0 0.0
0.0 0.0 0.0 0.0 0.0 0.0 0.0 0.0
0.0 0.0 0.0 0.0 0.0 0.0 0.0 0.0
0.0 0.0 0.0 0.0 0.0 0.0 0.0 0.0
0.0 0.0 0.0 0.0 0.0 0.0 0.0 0.0
00000000: 0000 0000 0000 0000 0000 0000 0000 0000
00000010: 0000 0000 0000 0000 0000 0000 0000 0000
00000020: 0000 0000 0000 0000 0000 0000 0000 0000
00000030: 0000 0000 0000 0000 0000 0000 0000 0000
00000040: 0000 0000 0000 0000 0000 0000 0000 0000
00000050: 0000 0000 0000 0000 0000 0000 0000 0000
00000060: 0000 0000 0000 0000 0000 0000 0000 0000
00000070: 0000 0000 0000 0000 0000 0000 0000 0000
00000080: 0000 0000 0000 0000 0000 0000 0000 0000
00000090: 0000 0000 0000 0000 0000 0000 0000 0000
000000a0: 0000 0000 0000 0000 0000 0000 0000 0000
000000b0: 0000 0000 0000 0000 0000 0000 0000 0000
000000c0: 0000 0000 0000 0000 0000 0000 0000 0000
000000d0: 0000 0000 0000 0000 0000 0000 0000 0000
000000e0: 0000 0000 0000 0000 0000 0000 0000 0000
000000f0: 0000 0000 0000 0000 0000 0000 0000 0000

features.5.weight f4 [64, 1, 3, 3]
0.08648381 -0.19966468 -0.07494426 -0.26150382 -0.13865936 -0.20642158 0.23204806 0.10258603
0.084219724 0.27612773 -0.09934673 0.110048026 0.28375533 0.12861109 -0.21816938 0.32843748
0.10882655 0.10844481 0.22656807 0.029139876 0.22443727 0.0721823 0.28331748 -0.0543361
-0.25653154 -0.18631229 0.17056635 -0.28638327 -0.13206494 0.27997342 -0.20671563 0.2705597
-0.21410486 0.2870426 -0.3324449 -0.15794179 0.22016767 0.12474656 -0.11036329 -0.25975657
0.2843533 0.13906276 0.058941722 -0.06689742 0.14982608 -0.19583242 -0.25706893 0.30910948
0.022161573 0.22356811 0.09796116 0.07453069 -0.102571696 -0.06878081 -0.019885868 0.32144174
-0.017193079 0.31662598 -0.20704997 -0.10230832 0.2783542 0.21318951 -0.312028 -0.12539613
-0.24946666 -0.19487266 0.017890722 0.07764864 -0.01876989 0.32439396 0.023103684 -0.30751908
0.13637447 -0.08678417 -0.27592993 0.2559745 0.035786778 0.046971798 0.038290292 -0.096765086
0.17411259 0.02137804 -0.30680174 -0.10203159 -0.19773595 -0.103392124 0.10639319 0.2816334
-0.20745656 -0.29551142 -0.042948157 -0.12426686 -0.14547145 -0.27477098 0.25415733 0.08688876
0.1320039 -0.0636864 0.23305729 -0.20196092 0.25574747 -0.06716856 -0.23253465 -0.17159593
-0.24151771 0.27298507 -0.27715927 -0.27803406 -0.25781208 0.104857355 -0.25881833 -0.01602897
-0.20441525 0.15114853 0.2161096 -0.18875329 -0.32065833 0.26205483 -0.23429684 -0.23299277
-0.22278416 0.04278758 -0.1528767 0.2567393 0.107246906 0.07148421 0.11803725 0.039627522
-0.06983766 -0.3111056 -0.2793579 0.26898685 -0.104047745 -0.15081164 -0.22744322 0.07204214
-0.19436292 -0.08035183 -0.018301874 0.07084867 -0.1766485 -0.2328903 -0.099249884 0.14470053
0.22813854 -0.1845293 0.2907941 -0.1748182 0.119092494 0.16675296 0.17552146 0.23772559
0.23528537 -0.08386549 0.04371026 -0.26815236 0.08894205 -0.18292317 0.21355864 0.035651565
-0.28097457 0.17253241 -0.26479694 0.22054198 -0.3222999 -0.2807418 -0.26383132 -0.20777318
0.15374473 -0.2401087 0.020076156 0.26526406 -0.21334052 -0.28869563 -0.19463456 -0.30970252
-0.30147684 -0.21252954 -0.108533785 0.24971983 -0.1300101 -0.04839787 0.32622805 -0.12765932
-0.09009139 0.14010847 -0.06419584 -0.13159232 0.08886209 -0.16250587 0.1638172 0.066762716
0.3172877 0.08093491 0.019825906 0.32608178 -0.15500407 0.036275715 -0.29074392 -0.17457724
-0.027088135 0.17734393 0.18121973 -0.17429575 0.070865124 0.021982193 -0.115642115 0.04406026
0.21563902 0.15365902 0.19127038 0.086484164 -0.09037349 -0.06249419 0.15134346 -0.19291072
0.32275912 -0.2697165 0.2999299 -0.04201719 -0.166212 -0.04774192 -0.09665589 -0.30073977
0.29923126 0.32099584 0.08305919 0.25918445 -0.065205544 0.037788987 0.09588143 0.057614803
0.1337564 -0.03555119 0.014536858 0.28794983 0.009700537 0.32016602 -0.09947872 0.3105648
-0.0011966527 -0.019004226 -0.040011138 0.119039685 -0.19811551 0.026240498 0.22001502 0.20109227
-0.03340015 0.13763916 0.026186079 0.03695464 -0.015431523 -0.09599444 0.1550099 0.022587031
00000000: 6c1e b13d e674 4cbe 607c 99bd d4e3 85be
00000010: b8fc 0dbe 2e60 53be 029e 6d3e a018 d23d
00000020: 647b ac3d 9d60 8d3e 4c76 cbbd dc60 e13d
00000030: 6148 913e a0b2 033e cb67 5fbe f528 a83e
00000040: 74e0 de3d 5018 de3d 7601 683e c0b6 ee3c
00000050: e2d2 653e 50d4 933d fd0e 913e 888f 5ebd
00000060: 1a58 83be a6c8 3ebe f2a8 2e3e d4a0 92be
00000070: 083c 07be ad58 8f3e 43ad 53be cd86 8a3e
00000080: 4e3e 5bbe 3ff7 923e 3836 aabe 7ebb 21be
00000090: a273 613e 207b ff3d 2606 e2bd d0fe 84be
000000a0: c196 913e 7866 0e3e e06c 713d 8401 89bd
000000b0: 026c 193e 4b88 48be 8a9e 83be 9943 9e3e
000000c0: 308c b53c 0aef 643e dc9f c83d 8ca3 983d
000000d0: 1c11 d2bd f4dc 8cbd b0e7 a2bc 0394 a43e
000000e0: 80d8 8cbc cd1c a23e e804 54be 0687 d1bd
000000f0: 7184 8e3e 5a4e 5a3e 22c2 9fbe d867 00be
00000100: 3074 7fbe b38c 47be 908f 923c 4006 9f3d
00000110: 50c3 99bc f716 a63e f043 bd3c 2473 9dbe
00000120: c0a5 0b3e e6bb b1bd b046 8dbe 170f 833e
00000130: 2895 123d 8065 403d 48d6 1c3d c62c c6bd
00000140: 924a 323e 0021 af3c 1e15 9dbe f0f5 d0bd
00000150: 4b7b 4abe 40bf d3bd ace4 d93d 4132 903e
00000160: 7e6f 54be 464d 97be 68ea 2fbd a07f febd
00000170: 78f6 14be c8ae 8cbe e920 823e bcf2 b13d
00000180: 082c 073e 046e 82bd 92a6 6e3e d8ce 4ebe
00000190: 55f1 823e ac8f 89bd 901d 6ebe d8b6 2fbe
000001a0: 6b50 77be b3c4 8b3e d2e7 8dbe 7b5a 8ebe
000001b0: f2ff 83be 74bf d63d d683 84be 304f 83bc
000001c0: 3b52 51be aec6 1a3e d64b 5d3e 8b48 41be
000001d0: 542d a4be 0d2c 863e 83eb 6fbe a895 6ebe
000001e0: 8821 64be 0842 2f3d b68b 1cbe 5573 833e
000001f0: 44a4 db3d 5066 923d 84bd f13d 7850 223d
00000200: 0c07 8fbd 3c49 9fbe 0008 8fbe a5b8 893e
00000210: fc16 d5bd 5e6e 1abe e0e6 68be d48a 933d
00000220: 1307 47be 808f a4bd d0ed 95bc 1c19 913d
00000230: 58e3 34be cb7a 6ebe 8643 cbbd 602c 143e
00000240: 269d 693e 40f5 3cbe f7e2 943e 8b03 33be
00000250: c4e6 f33d 4ac1 2a3e e6bb 333e 566e 733e
00000260: a6ee 703e acc1 abbd 8809 333d 444b 89be
00000270: 4027 b63d 3650 3bbe 1eaf 5a3e 6007 123d
00000280: e6db 8fbe 56ac 303e 7793 87be c2d5 613e
00000290: 7e04 a5be 64bd 8fbe e614 87be 7ec2 54be
000002a0: 426f 1d3e 0edf 75be c076 a43c b1d0 873e
000002b0: f075 5abe eacf 93be 484e 47be 5491 9ebe
000002c0: 2c5b 9abe 58a1 59be f646 debd 8eb6 7f3e
000002d0: 5e21 05be d83c 46bd 5d07 a73e 20b9 02be
000002e0: d681 b8bd 9878 0f3e 1c79 83bd 23c0 06be
000002f0: 54fd b53d f067 26be b2bf 273e e4ba 883d
00000300: 8973 a23e 34c1 a53d f069 a23c 31f4 a63e
00000310: 63b9 1ebe d895 143d 63dc 94be 60c4 32be
00000320: f0e7 ddbc a699 353e aa91 393e 967a 32be
00000330: bc21 913d 0014 b43c c6d5 ecbd 8878 343d
00000340: 7ad0 5c3e ca58 1d3e 62dc 433e 9c1e b13d
00000350: bc15 b9bd e8f9 7fbd c8f9 1a3e 638a 45be
00000360: af40 a53e 4818 8abe 6990 993e 381a 2cbd
00000370: 7b33 2abe 088d 43bd 86f3 c5bd 90fa 99be
00000380: d734 993e 9159 a43e f01a aa3d d3b3 843e
00000390: 7c8a 85bd a0c8 1a3d 7c5d c43d 80fd 6b3d
000003a0: 70f7 083e 209e 11bd 002c 6e3c 296e 933e
000003b0: 00ef 1e3c cdec a33e 80bb cbbd 5902 9f3e
000003c0: 00d9 9cba c0ae 9bbc b8e2 23bd 14cb f33d
000003d0: cbde 4abe 50f6 d63c 9e4b 613e 22eb 4d3e
000003e0: 98ce 08bd 48f1 0c3e 3084 d63c c05d 173d
000003f0: 80d4 7cbc bc98 c4bd eaba 1e3e 7008 b93c

features.5.bias f4 [64]
-0.26837265 0.32505527 -0.018638164 0.17982993 -0.24933092 0.102954954 -0.32635495 -0.18882895
-0.03413114 0.066331476 -0.11307919 0.28743604 0.25392845 -0.061709285 0.086403966 -0.22726505
0.24986222 0.09927407 -0.17919526 -0.32427868 0.108974665 -0.08666369 0.05179116 -0.14091456
0.14905941 -0.19155955 0.2557203 0.28361514 0.32578507 -0.16582653 0.21886674 -0.017532974
0.10925782 0.32776126 0.16667584 0.14594862 0.15288329 -0.07097152 0.21893969 -0.18581097
0.07027331 0.24377182 0.11864063 0.25765792 -0.22174637 -0.117605925 -0.18031561 -0.24525742
-0.21748881 0.22258666 -0.0136089325 0.07120225 -0.17583875 0.043521315 0.24638352 0.20937237
-0.0021989644 0.016883343 0.25730315 0.019361883 0.14231873 -0.22411487 -0.28498596 0.056085676
00000000: 2468 89be a56d a63e 10af 98bc 5625 383e
00000010: 9b50 7fbe 0cda d23d ff17 a7be 605c 41be
00000020: 18cd 0bbd ccd8 873d 1096 e7bd d12a 933e
00000030: e902 823e e0c2 7cbd 90f4 b03d 2bb8 68be
00000040: e2db 7f3e 3450 cb3d f67e 37be db07 a6be
00000050: 1c2e df3d bc7c b1bd f822 543d e84b 10be
00000060: 08a3 183e 3028 44be c5ed 823e 0136 913e
00000070: 4dcd a63e 6ece 29be 9a1e 603e 50a1 8fbc
00000080: 90c2 df3d 53d0 a73e 12ad 2a3e 8e73 153e
00000090: 708d 1c3e 8459 91bd ba31 603e 3b45 3ebe
000000a0: 74eb 8f3d 529f 793e dcf9 f23d bdeb 833e
000000b0: 7b11 63be 60db f0bd a8a4 38be c324 7bbe
000000c0: 63b5 5ebe c2ed 633e 00f8 5ebc 7cd2 913d
000000d0: 130f 34be 6843 323d f64b 7c3e b665 563e
000000e0: 801c 10bb f04e 8a3c 3dbd 833e d09c 9e3c
000000f0: 00bc 113e 5e7e 65be aee9 91be 18ba 653d

features.6.weight f4 [128, 64, 1, 1]
0.017049432 -0.010934114 0.04027675 0.06423989 -0.11060776 -0.08019617 0.08786529 0.05908799
-0.11713065 0.07458769 0.090471804 -0.080975205 -0.06797466 0.09947674 -0.0775173 0.051689982
0.06182444 0.04342927 0.029697284 0.020597205 0.037796155 0.09294115 -0.10497931 0.031953856
-0.10222277 0.032237455 -0.101331204 -0.0026775748 0.08642425 0.106577605 -0.028764412 0.08734088
0.062619075 0.048448518 0.10532904 -0.046385944 -0.043841884 -0.06558353 -0.009635642 -0.12100278
0.0031868517 -0.031389594 -0.10712463 -0.082130864 0.066281885 -0.07072757 0.04358332 0.11867979
-0.09761064 0.09951623 -0.0636861 0.121203974 -0.057708547 9.0539455e-05 0.110044494 0.017891064
0.05352138 -0.056079447 -0.045912564 0.059120595 0.08190523 -0.10215022 -0.0058070123 -0.11839734
-0.0986864 -0.018189251 -0.005620852 -0.11314374 0.07505624 -0.10716173 -0.08564593 -0.09670706
0.07912207 -0.10394399 -0.03567432 0.09434216 0.062922314 -0.009247676 -0.092969626 -0.1150191
0.02443412 -0.06661269 0.119262695 -0.015200183 -0.061681613 0.09861103 -0.09143934 -0.012668163
-0.06036429 0.022191659 0.029869542 0.12186171 -0.06783539 -0.0630182 0.07286298 -0.09211433
-0.08266999 -0.0224047 0.0055883676 0.01917769 -0.03909287 -0.06773816 -0.02980709 0.101979464
0.072565585 -0.111674175 -0.06646849 -0.0143417865 -0.07158394 -0.049687773 0.091200754 -0.06672187
-0.112224594 0.02197592 0.021872714 0.085689306 -0.054764807 0.00666745 0.0009384304 -0.057575345
0.052463666 -0.05607286 0.078989714 0.03592816 -0.11177929 -0.0811014 -0.003427595 -0.043016568
-0.02713272 0.10694988 -0.028555408 0.0017233193 -0.04916565 -0.0027682036 0.03373462 -0.012750879
-0.109038234 -0.06783213 -0.020915404 0.035941765 0.1143934 0.118214756 0.109486654 -0.10890265
-0.082040384 -0.08733292 0.11035822 0.11822195 -0.05559343 -0.03930606 0.09477633 0.008208647
-0.0472392 -0.016949147 -0.007022172 -0.11306791 -0.0812107 -0.083841324 -0.09216002 -0.06925535
-0.10675323 -0.11745028 -0.08033702 -0.0033601075 0.031974524 0.044460937 -0.077096015 0.09215139
-0.05439301 -0.04159026 0.048688605 -0.08235973 -0.018920183 -0.07544324 -0.06418528 -0.10799123
-0.11456756 0.06031452 0.030950919 0.0465073 0.021654963 -0.054068446 0.09063165 -0.06595042
0.0646835 -0.06448099 0.017217472 0.08785774 0.037170455 -0.108072385 0.018622428 0.054698095
0.10890694 -0.05461265 0.012563333 0.09681159 0.105669364 -0.11094442 0.09913553 -0.04676178
-0.027070165 0.06635751 -0.06913039 0.110098556 -0.04510984 0.039631248 0.051120654 -0.045461968
0.1045865 0.01286687 0.020234108 -0.09275699 -0.11607109 -0.050497964 -0.060318217 -0.09842524
-0.11476223 0.050649077 -0.11342655 0.08843376 -0.015777797 0.007163331 -0.09564909 -0.0578596
0.006312713 0.10251786 0.014008209 -0.09255575 0.10659087 -0.09173593 0.10118659 -0.03143756
0.047401935 -0.10848847 0.103377596 0.081249654 0.03538896 0.11912249 -0.08566779 -0.07174438
0.0036884695 -0.11711809 0.10090616 0.099846244 -0.024839848 0.018332317 -0.050236285 -0.09376374
0.10997446 -0.0001450181 -0.04150711 0.069637105 -0.045933798 0.031008944 0.031728968 -0.11747056
00000000: 40ab 8b3c 0025 33bc 3cf9 243d 3490 833d
00000010: 5286 e2bd e43d a4bd b8f2 b33d 4006 723d
00000020: 32e2 efbd 6ec1 983d 4849 b93d 54d6 a5bd
00000030: 4c36 8bbd 76ba cb3d 64c1 9ebd e0b8 533d
00000040: a03b 7d3d e4e2 313d b847 f33c 78bb a83c
00000050: 24d0 1a3d ee57 be3d 64ff d6bd 0ce2 023d
00000060: 2c5a d1bd 6c0b 043d bc86 cfbd 407a 2fbb
00000070: 32ff b03d 5c45 da3d 58a3 ebbc c6df b23d
00000080: 6e3e 803d f471 463d c0b6 d73d 30ff 3dbd
00000090: 8c93 33bd a850 86bd d0de 1dbc 4ed0 f7bd
000000a0: 80da 503b 6092 00bd 2864 dbbd 3a34 a8bd
000000b0: ccbe 873d 9ed9 90bd 6c84 323d 640e f33d
000000c0: 16e8 c7bd 2acf cb3d dc6d 82bd ca39 f83d
000000d0: cc5f 6cbd 00e0 bd38 025f e13d 4890 923c
000000e0: 3c39 5b3d 90b3 65bd d00e 3cbd 7028 723d
000000f0: eebd a73d 2234 d1bd c048 bebb 4e7a f2bd
00000100: 181c cabd a001 95bc 202f b8bb e8b7 e7bd
00000110: 16b7 993d 9c77 dbbd 2267 afbd 5a0e c6bd
00000120: c00a a23d 96e0 d4bd 3c1f 12bd 7636 c13d
00000130: 6add 803d 9083 17bc dc66 bebd 228f ebbd
00000140: 102a c83c 3c6c 88bd 0040 f43d 300a 79bc
00000150: dca5 7cbd 94f4 c93d 8c44 bbbd 208e 4fbc
00000160: 8c40 77bd 48cb b53c f8b0 f43c a292 f93d
00000170: 48ed 8abd b00f 81bd 3039 953d 70a6 bcbd
00000180: e24e a9bd 108a b7bc a01e b73b 881a 9d3c
00000190: d81f 20bd 4eba 8abd 002e f4bc 9cda d03d
000001a0: 449d 943d 6eb5 e4bd a220 88bd d0f9 6abc
000001b0: 9a9a 92bd 6885 4bbd 76c7 ba3d 7aa5 88bd
000001c0: 02d6 e5bd d806 b43c 682e b33c e07d af3d
000001d0: 1051 60bd a07a da3b 0001 763a 20d4 6bbd
000001e0: 24e4 563d a8ac 65bd 5cc5 a13d 6829 133d
000001f0: 8aec e4bd 7e18 a6bd 80a1 60bb 2432 30bd
00000200: 7045 debc 8a08 db3d 08ed e9bc 00e1 e13a
00000210: ec61 49bd c06a 35bb 502d 0a3d 10e9 50bc
00000220: 704f dfbd 92eb 8abd c856 abbc ac37 133d
00000230: 1647 ea3d 941a f23d 8a3a e03d 5a08 dfbd
00000240: ca04 a8bd 9adb b2bd 7e03 e23d 5a1e f23d
00000250: f0b5 63bd 64ff 20bd 181a c23d 907d 063c
00000260: e47d 41bd f0d8 8abc 401a e6bb 2690 e7bd
00000270: cc51 a6bd 00b5 abbd 64be bcbd c0d5 8dbd
00000280: 70a1 dabd c689 f0bd bc87 a4bd 4035 5cbb
00000290: b8f7 023d ac1c 363d 84e4 9dbd deb9 bc3d
000002a0: 34cb 5ebd 8c5a 2abd b46d 473d 38ac a8bd
000002b0: 80fe 9abc fc81 9abd 9273 83bd 822a ddbd
000002c0: 66a2 eabd 5c0c 773d c88c fd3c 707e 3e3d
000002d0: c065 b13c e076 5dbd 169d b93d 0411 87bd
000002e0: c878 843d 9c0e 84bd a80b 8d3c c2ee b33d
000002f0: 0c40 183d 0e55 ddbd 108e 983c 1c0b 603d
00000300: 9a0a df3d 84b1 5fbd 70d6 4d3c 2845 c63d
00000310: 2e69 d83d d436 e3bd 9207 cb3d 4889 3fbd
00000320: 40c2 ddbc 72e6 873d 3c94 8dbd 5a7b e13d
00000330: 18c5 38bd 6054 223d e463 513d 5436 3abd
00000340: 7231 d63d 90cf 523c 00c2 a53c 60f7 bdbd
00000350: aeb6 edbd f4d6 4ebd 3c10 77bd 2c93 c9bd
00000360: 7608 ebbd 6875 4f3d 2e4c e8bd c21c b53d
00000370: 7040 81bc 60ba ea3b ace3 c3bd 30fe 6cbd
00000380: e0da ce3b e2f4 d13d b082 653c de8d bdbd
00000390: 504c da3d 0ce0 bbbd ea3a cf3d acc4 00bd
000003a0: 8828 423d 342f debd a2b7 d33d 3866 a63d
000003b0: 04f4 103d 7ef6 f33d 9872 afbd b8ee 92bd
000003c0: 40ba 713b 9cdb efbd e4a7 ce3d 307c cc3d
000003d0: f07c cbbc a82d 963c 90c4 4dbd 3407 c0bd
000003e0: 4a3a e13d 0010 18b9 5c03 2abd e69d 8e3d
000003f0: 1425 3cbd 7806 fe3c 3cf6 013d 6894 f0bd

features.6.bias f4 [128]
0.12116802 0.019788593 -0.035003513 -0.0900311 0.03241329 0.08520122 0.011402145 -0.10363695
-0.10823546 0.03137803 -0.11619149 -0.11493586 -0.09392226 -0.07248022 0.06978418 0.065984175
0.039892122 0.10892719 -0.104340464 0.0687498 0.118450105 -0.07415472 0.054331094 0.04720676
-0.0024562776 -0.114394635 0.08496669 0.04609005 -0.047231972 -0.09574738 0.008698836 0.0655465
-0.010278359 0.055154234 -0.022585139 -0.00051631033 -0.091443166 0.037106365 -0.09576996 -0.005453542
0.08557868 0.03778866 0.091131076 -0.09812692 0.028686523 0.113154635 -0.07108092 -0.056471705
-0.11089121 -0.06561239 0.116383135 -0.0807963 0.057551593 -0.108996466 -0.081406176 -0.09103666
0.034740612 -0.07765922 0.09412326 -0.119166076 -0.03384149 0.01254113 -0.019097224 -0.04652244
-0.1175126 0.1033293 0.011337638 0.10223605 0.0176844 0.07229103 0.1146545 -0.053962678
-0.07365815 0.05103816 -0.022184089 0.039354637 0.052081943 0.011055157 0.07002519 0.100453824
0.10073377 0.04335293 -0.11350013 -0.08903706 0.043229446 -0.020268112 -0.0055454522 -0.09345473
0.03111422 -0.03852099 0.06829694 -0.046437606 0.033711955 0.08713183 0.0004670322 -0.009459704
0.024046347 -0.11671102 0.015835866 0.10233128 -0.08481747 -0.03435789 0.013787955 0.03697008
0.0026016086 0.10749653 -0.008551002 0.08180471 0.11725965 0.07070102 -0.0891442 -0.042263806
-0.0048374087 0.10551642 -0.045911968 0.049654484 0.090192676 -0.08716634 -0.11505216 0.011211529
0.04161018 -0.08659442 0.120183334 0.022792384 0.094851196 -0.011479139 0.08161716 0.003858924
00000000: f026 f83d b01b a23c d85f 0fbd 3a62 b8bd
00000010: ccc3 043d fa7d ae3d 10d0 3a3c 9c3f d4bd
00000020: 8eaa ddbd 4086 003d cef5 edbd 7e63 ebbd
00000030: 505a c0bd 8270 94bd 02eb 8e3d b622 873d
00000040: ec65 233d 3815 df3d 74b0 d5bd b2cc 8c3d
00000050: f895 f23d 6ede 97bd 488a 5e3d e05b 413d
00000060: 80f9 20bb bc47 eabd 0403 ae3d ecc8 3c3d
00000070: 5076 41bd 3417 c4bd 9085 0e3c 3e3d 863d
00000080: 9066 28bc 68e9 613d 7804 b9bc 0059 07ba
00000090: 8e46 bbbd d8fc 173d 0a23 c4bd a0b3 b2bb
000000a0: e043 af3d 48c8 1a3d eea2 ba3d c4f6 c8bd
000000b0: 0000 eb3c 9ebd e73d e092 91bd e04e 67bd
000000c0: ee1a e3bd ca5f 86bd 485a ee3d 8878 a5bd
000000d0: 38bb 6b3d 8a39 dfbd 48b8 a6bd 6e71 babd
000000e0: 2c4c 0e3d cc0b 9fbd b2c3 c03d 580d f4bd
000000f0: 609d 0abd 5079 4d3c c871 9cbc 508e 3ebd
00000100: 72aa f0bd 509e d33d 80c1 393c 2261 d13d
00000110: e0de 903c 520d 943d facf ea3d f807 5dbd
00000120: 16da 96bd 640d 513d 68bb b5bc 5432 213d
00000130: e053 553d b020 353c 5e69 8f3d bcba cd3d
00000140: 824d ce3d d892 313d c272 e8bd 1059 b6bd
00000150: 5c11 313d 5009 a6bc a0b6 b5bb 3265 bfbd
00000160: 40e3 fe3c 30c8 1dbd 44df 8b3d 5c35 3ebd
00000170: 8c15 0a3d 2c72 b23d 00dc f439 e0fc 1abc
00000180: d8fc c43c 3006 efbd 38ba 813c 1093 d13d
00000190: c8b4 adbd dcba 0cbd e0e6 613c f06d 173d
000001a0: c07f 2a3b 2427 dc3d 8019 0cbc 3a89 a73d
000001b0: d425 f03d b2cb 903d 3c91 b6bd d01c 2dbd
000001c0: 2083 9ebb fe18 d83d 300e 3cbd 8062 4b3d
000001d0: f0b6 b83d 4484 b2bd 78a0 ebbd 90b0 373c
000001e0: 706f 2a3d 6a58 b1bd ae22 f63d 18b7 ba3c
000001f0: 5841 c23d 0013 3cbc e626 a73d 00e6 7c3b

features.9.weight f4 [128]
1.0 1.0 1.0 1.0 1.0 1.0 1.0 1.0
1.0 1.0 1.0 1.0 1.0 1.0 1.0 1.0
1.0 1.0 1.0 1.0 1.0 1.0 1.0 1.0
1.0 1.0 1.0 1.0 1.0 1.0 1.0 1.0
1.0 1.0 1.0 1.0 1.0 1.0 1.0 1.0
1.0 1.0 1.0 1.0 1.0 1.0 1.0 1.0
1.0 1.0 1.0 1.0 1.0 1.0 1.0 1.0
1.0 1.0 1.0 1.0 1.0 1.0 1.0 1.0
1.0 1.0 1.0 1.0 1.0 1.0 1.0 1.0
1.0 1.0 1.0 1.0 1.0 1.0 1.0 1.0
1.0 1.0 1.0 1.0 1.0 1.0 1.0 1.0
1.0 1.0 1.0 1.0 1.0 1.0 1.0 1.0
1.0 1.0 1.0 1.0 1.0 1.0 1.0 1.0
1.0 1.0 1.0 1.0 1.0 1.0 1.0 1.0
1.0 1.0 1.0 1.0 1.0 1.0 1.0 1.0
1.0 1.0 1.0 1.0 1.0 1.0 1.0 1.0
00000000: 0000 803f 0000 803f 0000 803f 0000 803f
00000010: 0000 803f 0000 803f 0000 803f 0000 803f
00000020: 0000 803f 0000 803f 0000 803f 0000 803f
00000030: 0000 803f 0000 803f 0000 803f 0000 803f
00000040: 0000 803f 0000 803f 0000 803f 0000 803f
00000050: 0000 803f 0000 803f 0000 803f 0000 803f
00000060: 0000 803f 0000 803f 0000 803f 0000 803f
00000070: 0000 803f 0000 803f 0000 803f 0000 803f
00000080: 0000 803f 0000 803f 0000 803f 0000 803f
00000090: 0000 803f 0000 803f 0000 803f 0000 803f
000000a0: 0000 803f 0000 803f 0000 803f 0000 803f
000000b0: 0000 803f 0000 803f 0000 803f 0000 803f
000000c0: 0000 803f 0000 803f 0000 803f 0000 803f
000000d0: 0000 803f 0000 803f 0000 803f 0000 803f
000000e0: 0000 803f 0000 803f 0000 803f 0000 803f
000000f0: 0000 803f 0000 803f 0000 803f 0000 803f
00000100: 0000 803f 0000 803f 0000 803f 0000 803f
00000110: 0000 803f 0000 803f 0000 803f 0000 803f
00000120: 0000 803f 0000 803f 0000 803f 0000 803f
00000130: 0000 803f 0000 803f 0000 803f 0000 803f
00000140: 0000 803f 0000 803f 0000 803f 0000 803f
00000150: 0000 803f 0000 803f 0000 803f 0000 803f
00000160: 0000 803f 0000 803f 0000 803f 0000 803f
00000170: 0000 803f 0000 803f 0000 803f 0000 803f
00000180: 0000 803f 0000 803f 0000 803f 0000 803f
00000190: 0000 803f 0000 803f 0000 803f 0000 803f
000001a0: 0000 803f 0000 803f 0000 803f 0000 803f
000001b0: 0000 803f 0000 803f 0000 803f 0000 803f
000001c0: 0000 803f 0000 803f 0000 803f 0000 803f
000001d0: 0000 803f 0000 803f 0000 803f 0000 803f
000001e0: 0000 803f 0000 803f 0000 803f 0000 803f
000001f0: 0000 803f 0000 803f 0000 803f 0000 803f

features.9.bias f4 [128]
0.0 0.0 0.0 0.0 0.0 0.0 0.0 0.0
0.0 0.0 0.0 0.0 0.0 0.0 0.0 0.0
0.0 0.0 0.0 0.0 0.0 0.0 0.0 0.0
0.0 0.0 0.0 0.0 0.0 0.0 0.0 0.0
0.0 0.0 0.0 0.0 0.0 0.0 0.0 0.0
0.0 0.0 0.0 0.0 0.0 0.0 0.0 0.0
0.0 0.0 0.0 0.0 0.0 0.0 0.0 0.0
0.0 0.0 0.0 0.0 0.0 0.0 0.0 0.0
0.0 0.0 0.0 0.0 0.0 0.0 0.0 0.0
0.0 0.0 0.0 0.0 0.0 0.0 0.0 0.0
0.0 0.0 0.0 0.0 0.0 0.0 0.0 0.0
0.0 0.0 0.0 0.0 0.0 0.0 0.0 0.0
0.0 0.0 0.0 0.0 0.0 0.0 0.0 0.0
0.0 0.0 0.0 0.0 0.0 0.0 0.0 0.0
0.0 0.0 0.0 0.0 0.0 0.0 0.0 0.0
0.0 0.0 0.0 0.0 0.0 0.0 0.0 0.0
00000000: 0000 0000 0000 0000 0000 0000 0000 0000
00000010: 0000 0000 0000 0000 0000 0000 0000 0000
00000020: 0000 0000 0000 0000 0000 0000 0000 0000
00000030: 0000 0000 0000 0000 0000 0000 0000 0000
00000040: 0000 0000 0000 0000 0000 0000 0000 0000
00000050: 0000 0000 0000 0000 0000 0000 0000 0000
00000060: 0000 0000 0000 0000 0000 0000 0000 0000
00000070: 0000 0000 0000 0000 0000 0000 0000 0000
00000080: 0000 0000 0000 0000 0000 0000 0000 0000
00000090: 0000 0000 0000 0000 0000 0000 0000 0000
000000a0: 0000 0000 0000 0000 0000 0000 0000 0000
000000b0: 0000 0000 0000 0000 0000 0000 0000 0000
000000c0: 0000 0000 0000 0000 0000 0000 0000 0000
000000d0: 0000 0000 0000 0000 0000 0000 0000 0000
000000e0: 0000 0000 0000 0000 0000 0000 0000 0000
000000f0: 0000 0000 0000 0000 0000 0000 0000 0000
00000100: 0000 0000 0000 0000 0000 0000 0000 0000
00000110: 0000 0000 0000 0000 0000 0000 0000 0000
00000120: 0000 0000 0000 0000 0000 0000 0000 0000
00000130: 0000 0000 0000 0000 0000 0000 0000 0000
00000140: 0000 0000 0000 0000 0000 0000 0000 0000
00000150: 0000 0000 0000 0000 0000 0000 0000 0000
00000160: 0000 0000 0000 0000 0000 0000 0000 0000
00000170: 0000 0000 0000 0000 0000 0000 0000 0000
00000180: 0000 0000 0000 0000 0000 0000 0000 0000
00000190: 0000 0000 0000 0000 0000 0000 0000 0000
000001a0: 0000 0000 0000 0000 0000 0000 0000 0000
000001b0: 0000 0000 0000 0000 0000 0000 0000 0000
000001c0: 0000 0000 0000 0000 0000 0000 0000 0000
000001d0: 0000 0000 0000 0000 0000 0000 0000 0000
000001e0: 0000 0000 0000 0000 0000 0000 0000 0000
000001f0: 0000 0000 0000 0000 0000 0000 0000 0000

features.10.weight f4 [128, 1, 3, 3]
-0.1415122 0.15032125 0.118533105 0.050028056 0.005548924 -0.06332126 0.25967804 0.08997527
-0.026050955 -0.22531709 0.109307736 0.20502236 0.22175863 0.031667233 0.086233735 0.13894573
-0.1776346 0.21201202 -0.010655642 0.14543188 -0.06860793 0.10649893 0.04607621 -0.2465167
-0.21690886 0.026744038 0.31881145 -0.06489536 -0.0027993917 0.11794424 0.20482627 -0.2758938
0.2759538 0.10051596 0.1691269 0.18404326 0.044546455 0.21959588 0.013469785 0.18204656
-0.09332466 0.25974312 0.14343092 -0.13526535 -0.29206413 -0.03957823 -0.12516522 0.27345958
-0.1580898 -0.013332397 0.06769714 0.3008267 -0.19265942 0.09697607 -0.11270866 -0.31522238
0.2938504 0.21718052 -0.10897605 -0.16998415 -0.30515963 0.25583258 -0.33181912 -0.23963706
0.050698996 0.21627185 0.23536542 -0.32502747 0.15493369 -0.06356156 0.09845173 0.09651017
0.21676645 -0.047227174 -0.13386361 -0.20477593 -0.026550055 -0.049690813 -0.16882765 -0.12581997
0.037809134 0.12234676 0.16864595 -0.11505072 -0.09183118 0.25949076 0.270237 0.08085838
-0.119271874 -0.28692433 -0.29657787 -0.14539206 0.23349574 -0.040761083 -0.12870722 0.07975662
0.31177095 0.11274937 0.24242732 -0.2630374 0.21783534 0.2625958 0.051525325 0.28121403
-0.1735485 0.29798225 -0.32402343 0.33062515 -0.11606836 -0.09082553 0.049179763 0.19642064
-0.23511192 0.2539952 0.03245446 -0.22388665 -0.17379925 0.10559788 -0.029306412 0.32552788
0.26946154 -0.031198233 0.20354286 0.007023841 0.23968592 -0.15232205 -0.15766117 -0.07022366
0.2554609 -0.023231655 0.19234106 0.22094575 -0.15419614 0.196412 0.30795166 0.29550734
0.1898556 -0.2236242 -0.1575304 -0.018904835 0.037596464 0.3088614 -0.08137953 0.2395964
-0.16847639 0.075695604 0.14500818 0.15968415 0.049025267 0.08036387 0.21106026 -0.15820925
-0.2785704 0.06948283 0.18366548 -0.27210826 0.24989787 -0.024794847 -0.18863389 -0.12474275
-0.022379905 0.062078267 -0.19074464 -0.31449562 -0.3095555 0.20194742 0.20090273 -0.034867257
-0.28005737 -0.093806386 -0.30937427 -0.31286725 -0.15649538 0.19990054 -0.08459322 -0.27007517
0.20447746 -0.14595763 -0.055132955 0.17366335 0.12084296 -0.27051497 0.08585599 0.012926102
-0.12980871 0.089447945 0.27726415 -0.25189292 0.055746675 0.1108557 0.08856824 0.2204248
-0.17295349 0.015646607 -0.20877421 0.2508035 0.025871962 0.31300524 -0.06459582 0.040705204
-0.25617322 0.03603962 -0.32646972 -0.24700706 -0.019264221 0.2627206 0.2323558 -0.3193861
-0.0778923 0.1937019 0.14564916 0.018495917 0.26052 4.3720007e-05 -0.31988263 -0.18553019
0.076594025 -0.022492379 0.25529936 -0.066563725 0.27230975 -0.17094521 -0.24998626 -0.1962965
-0.027268529 -0.14684042 -0.14821081 -0.18548787 0.075695544 -0.013831377 0.1196152 0.24752751
-0.09260194 0.20490941 -0.1362842 0.25951877 -0.1962193 0.012392908 0.2725381 0.29713336
-0.031042486 -0.23904225 0.22518554 -0.08722255 0.2750801 -0.26502043 -0.2869683 0.18529162
0.02615571 -0.28469175 -0.09810659 0.2723833 -0.3310567 -0.27921042 -0.1622998 -0.13051896
00000000: 93e8 10be d0ed 193e 7cc1 f23d 38ea 4c3d
00000010: c0d3 b53b 94ae 81bd 85f4 843e f444 b83d
00000020: d068 d5bc 86b9 66be bcdc df3d 62f1 513e
00000030: b214 633e 80b5 013d 509b b03d ca47 0e3e
00000040: d8e5 35be ae19 593e 0095 2ebc 18ec 143e
00000050: 5082 8cbd 1c1c da3d 68ba 3c3d e06e 7cbe
00000060: 5b1d 5ebe 5016 db3c 413b a33e dce7 84bd
00000070: 0076 37bb c08c f13d fabd 513e f441 8dbe
00000080: d149 8d3e 50db cd3d 9a2f 2d3e d675 3c3e
00000090: 5876 363d bedd 603e 60b0 5c3c 6a6a 3a3e
000000a0: 0021 bfbd 0dfd 843e 8edf 123e 0083 0abe
000000b0: 6e89 95be c81c 22bd 502b 00be e502 8c3e
000000c0: 4be2 21be 2070 5abc cca4 8a3d f505 9a3e
000000d0: 8348 45be 649b c63d ccd3 e6bd d464 a1be
000000e0: 8f73 963e 9264 5e3e d62e dfbd 5310 2ebe
000000f0: e23d 9cbe 7dfc 823e 32e4 a9be 6b63 75be
00000100: c0a9 4f3d 5e76 5d3e a203 713e 006a a6be
00000110: f0a6 1e3e 902c 82bd 10a1 c93d 20a7 c53d
00000120: 06f8 5d3e 4871 41bd 8b13 09be c8b0 51be
00000130: 807f d9bc 9888 4bbd 28e1 2cbe f3d6 00be
00000140: c0dd 1a3d f090 fa3d 86b1 2c3e b69f ebbd
00000150: fc11 bcbd f9db 843e 815c 8a3e 1499 a53d
00000160: d044 f4bd bfe7 92be 0ed9 97be a8e1 14be
00000170: 8219 6f3e 18f5 26bd d3cb 03be 7057 a33d
00000180: 71a0 9f3e 24e9 e63d de3e 783e d7ac 86be
00000190: 3a10 5f3e f572 863e 380c 533d 49fb 8f3e
000001a0: b3b6 31be 2191 983e 66e6 a5be b347 a93e
000001b0: 40b5 edbd bc02 babd b870 493d 7e22 493e
000001c0: 2ec1 70be a90b 823e f8ee 043d 8b42 65be
000001d0: 6ef8 31be b443 d83d 0014 f0bc 97ab a63e
000001e0: ddf6 893e 7093 ffbc 8a6d 503e 4028 e63b
000001f0: 3a70 753e 50fa 1bbe ee71 21be 6cd1 8fbd
00000200: c5cb 823e 5050 bebc 0ef5 443e 9a3f 623e
00000210: 98e5 1dbe 3a20 493e d7ab 9d3e bd4c 973e
00000220: 8269 423e befd 64be a64f 21be 50de 9abc
00000230: c0fe 193d 1523 9e3e 50aa a6bd c258 753e
00000240: 1385 2cbe 4c06 9b3d 067d 143e 3e84 233e
00000250: b8ce 483d d095 a43d 2e20 583e 9b01 22be
00000260: c8a0 8ebe 044d 8e3d ce12 3c3e c651 8bbe
00000270: 3ae5 7f3e 901e cbbc 3e29 41be 2079 ffbd
00000280: 1056 b7bc c845 7e3d 9052 43be 9205 a1be
00000290: 0f7e 9ebe 4ecb 4e3e 72b9 4d3e f8d0 0ebd
000002a0: ae63 8fbe 901d c0bd 4e66 9ebe 2330 a0be
000002b0: 5340 20be bab2 4c3e 363f adbd 4b47 8abe
000002c0: 8a62 513e eb75 15be 18d3 61bd ced4 313e
000002d0: 847c f73d f080 8abe 44d5 af3d 00c8 533c
000002e0: 93ec 04be 7c30 b73d 91f5 8d3e 1cf8 80be
000002f0: a056 643d 5008 e33d 4463 b53d 0ab7 613e
00000300: b81a 31be 502d 803c e8c8 55be 5169 803e
00000310: 70f1 d33c 3942 a03e d04a 84bd 80ba 263d
00000320: 2329 83be 489e 133d 0a27 a7be 6bef 7cbe
00000330: 00d0 9dbc 5183 863e aeee 6d3e 9386 a3be
00000340: 0086 9fbd ca59 463e 0e25 153e c084 973c
00000350: e162 853e 0060 3738 a8c7 a3be a0fb 3dbe
00000360: 54dd 9c3d f041 b8bc 99b6 823e 9052 88bd
00000370: 2f6c 8b3e 430c 2fbe 66fc 7fbe f301 49be
00000380: 4062 dfbc 565d 16be 93c4 17be 88f0 3dbe
00000390: 4406 9b3d 009d 62bc d0f8 f43d da77 7d3e
000003a0: 16a6 bdbd c6d3 513e 168e 0bbe a5df 843e
000003b0: b6ed 48be a00b 4b3c 1d8a 8b3e dd21 983e
000003c0: d04c febc 7ec7 74be 0a97 663e bca1 b2bd
000003d0: 4dd7 8c3e c2b0 87be 82ed 92be 16bd 3d3e
000003e0: 8044 d63c 1ec3 91be 1cec c8bd d375 8b3e
000003f0: 4480 a9be abf4 8ebe eb31 26be c3a6 05be

features.10.bias f4 [128]
-0.02009198 -0.027103275 0.29918733 0.057338685 -0.26095593 -0.07979509 -0.17166099 0.1897476
-0.13359869 0.19805953 0.29189387 -0.26997775 0.09593597 -0.24975316 -0.2686754 -0.19616532
0.07161948 0.004385978 -0.3071085 -0.25874245 0.2372497 -0.22411105 -0.07714936 0.05701983
-0.22128634 -0.1341242 0.10254836 0.24385151 -0.24087927 -0.26586983 -0.20082395 0.1464932
-0.22183633 0.10508832 0.054956824 0.14397371 0.10323691 -0.24027634 -0.20321617 0.076767415
-0.120576546 0.03357944 0.20881012 0.26692918 0.3095992 -0.19585578 -0.25660038 0.05650708
0.24533138 0.11870393 -0.17915094 0.09124315 -0.033296138 -0.0147360265 0.3327084 -0.13518557
-0.31740624 -0.1125288 0.2539529 0.048277766 0.13229266 0.04324615 -0.07012427 -0.060091466
-0.1749661 0.28411874 0.046452075 0.27130577 -0.15578672 0.048330665 -0.24474382 0.0048808753
-0.13646388 -0.013302594 0.15886617 0.32162145 0.14128742 0.2661849 -0.045900553 -0.18325794
-0.16002119 -0.29602337 -0.04573396 -0.25281212 0.19981566 -0.28118408 -0.29060018 0.29884902
-0.1778557 -0.16536114 0.15953779 0.06168416 -0.21496122 -0.24705657 -0.06499228 -0.016142696
0.29735348 0.22807732 0.2274535 -0.30732828 0.07290506 -0.017513603 -0.30824357 0.2616584
-0.15102932 -0.08766684 0.26144484 0.14273182 0.26050892 0.20482764 -0.31627417 -0.2684741
0.06101203 -0.0753077 0.15566492 -0.030465871 0.2266505 0.17117676 0.29449275 0.051815867
-0.026765615 0.0178217 -0.098168224 0.22735843 0.041241914 -0.02632296 0.2694948 -0.25394976
00000000: f097 a4bc b007 debc 152f 993e f8db 6a3d
00000010: 049c 85be 9c6b a3bd e6c7 2fbe 324d 423e
00000020: 18ce 08be 1ed0 4a3e 1d73 953e 863a 8abe
00000030: 147a c43d 4bbf 7fbe d28f 89be 90df 48be
00000040: 3cad 923d 40b8 8f3b 533d 9dbe e479 84be
00000050: 96f1 723e 5e7d 65be 7c00 9ebd a08d 693d
00000060: e398 62be db57 09be e004 d23d 36b4 793e
00000070: 0ea9 76be 1720 88be cba4 4dbe 5002 163e
00000080: 1029 63be 8c38 d73d 681a 613d d86d 133e
00000090: e06d d33d 000b 76be e617 50be 3c38 9d3d
000000a0: d6f0 f6bd 988a 093d 52d2 553e f1aa 883e
000000b0: c983 9e3e 6b8e 48be 2061 83be f873 673d
000000c0: 2638 7b3e 0c1b f33d 5873 37be b0dd ba3d
000000d0: 8861 08bd 606f 71bc c158 aa3e 166e 0abe
000000e0: 1283 a2be 8075 e6bd 1d06 823e e8be 453d
000000f0: ba77 073e e022 313d 509d 8fbd 7822 76bd
00000100: 502a 33be 0378 913e 8844 3e3d 97e8 8a3e
00000110: 8e86 1fbe 60f6 453d 209e 7abe c0ef 9f3b
00000120: 30bd 0bbe 20f3 59bc d0ad 223e 91ab a43e
00000130: a6ad 103e 6349 883e 3802 3cbd f8a7 3bbe
00000140: 98dc 23be 6090 97be 8853 3bbd 9770 81be
00000150: 7a9c 4c3e 5cf7 8fbe 8cc9 94be bd02 993e
00000160: ce1f 36be 6e54 29be e05d 233e 88a8 7c3d
00000170: cb1e 5cbe 66fc 7cbe ac1a 85bd b03d 84bc
00000180: b73e 983e 1a8d 693e 92e9 683e 225a 9dbe
00000190: 404f 953d b078 8fbc 1ad2 9dbe 17f8 853e
000001a0: 6ea7 1abe ac8a b3bd 19dc 853e 4a28 123e
000001b0: 6d61 853e 56be 513e b0ee a1be 7075 89be
000001c0: c0e7 793d ec3a 9abd a066 1f3e 9093 f9bc
000001d0: 1217 683e f648 2f3e c1c7 963e e03c 543d
000001e0: 9043 dbbc d0fe 913c 6c0c c9bd a6d0 683e
000001f0: 48ed 283d 40a3 d7bc 39fb 893e b405 82be

features.11.weight f4 [256, 128, 1, 1]
-0.011289105 -0.085428245 -0.063743114 0.02279991 -0.06004519 0.0038721338 -0.06357372 -0.079636745
-0.0231084 -0.08431966 -0.038127903 -0.07239199 -0.01992277 -0.041688144 -0.0589063 -0.057092298
0.00713785 -0.010861717 -0.08531474 0.06717732 -0.03366902 -0.014163956 -0.04194155 -0.032172427
0.008644037 0.0077758804 0.04738695 0.020874396 -0.029713854 -0.02886235 0.05988174 0.055594392
-0.0008860752 0.03183715 -0.0102829635 0.027509682 0.075300805 -0.018889956 0.0573046 0.056028895
0.03294886 -0.008295819 -0.07969564 -0.05704343 0.04648163 0.015651576 0.07206907 -0.072296776
0.02241718 0.03774307 -0.07353275 0.06450678 0.008134961 0.008256532 0.0055069625 -0.010042235
-0.052490707 -0.0038639084 -0.055329528 0.08600669 -0.026901722 -0.05784998 -0.055473376 0.02165854
-0.07958775 0.0047090873 -0.051188853 0.06781339 -0.024586953 -0.074807346 -0.06582796 -0.0040725544
-0.02742761 0.072014816 0.049641304 0.02784381 -0.088180244 0.053204723 -0.0405278 0.0520679
-0.066538274 -0.022305682 -0.052837607 0.087526806 0.06338359 0.022726424 0.012824379 -0.0042947233
-0.08367951 0.03528697 0.060749553 -0.020571478 0.07054622 -0.015258148 0.04046748 0.082373805
-0.03184383 -0.08348941 0.077984594 0.010974862 0.073846824 -0.052485313 0.023847066 0.036882542
0.07616832 -0.06909688 -0.006509781 0.05757574 -0.04469613 -0.055719733 -0.08750669 0.018636227
-0.049760874 -0.04684387 -0.025677659 -0.04464841 0.02121491 0.041905798 0.062798746 0.04153698
0.042702295 -0.08700387 0.050598897 -0.07004171 0.015895918 0.062277548 -0.029437888 0.07006895
-0.08300096 -0.040935475 0.012102887 0.04285807 -0.042970564 -0.0581823 0.024183117 -0.079898536
-0.060951687 0.069253914 -0.075807095 0.08177311 -0.034626164 -0.04484762 -0.016078822 0.06366455
-0.03273671 0.04610067 -0.06105774 -0.06919817 0.05336245 0.0008218512 -0.0042424276 0.015582025
0.04577086 -0.0865023 0.037552588 0.026564077 -0.0049064606 -0.07032023 -0.07630656 -0.021236993
-0.04963746 0.062352695 0.011607401 0.07114687 0.07083479 -0.074549146 -0.08739404 -0.023345374
-0.035626784 0.033162624 0.074404426 0.02033306 0.044765256 0.063318886 0.06336827 0.026413038
0.03467139 -0.039777268 0.008029215 -0.032058377 -0.043848548 -0.05931627 -0.023649253 0.048773013
0.030953854 0.04861427 0.044005983 -0.013218403 -0.08306992 0.047398053 -0.0057363138 -0.08747717
-0.0073302537 0.042671822 0.055125587 -0.05771271 -0.07455848 -0.0077320635 -0.047504704 -0.07755649
-0.0558349 -0.016465202 0.027076356 -0.076893665 -0.0058532357 -0.0572223 0.08492198 -0.048910312
-0.014465243 -0.04639094 0.009565145 0.08473503 0.029041514 -0.062014483 -0.028389052 0.07022699
-0.06967483 0.011830039 0.056772895 -0.030656744 0.04922276 -0.061364852 -0.008497223 0.08107161
0.032936983 -0.072741225 -0.0032960847 0.028542891 0.02386538 0.0060982555 -0.014586635 0.049664997
-0.060457714 0.06964911 0.07748277 0.07680056 0.0011874139 0.086438544 0.035079308 0.069018714
-0.021786906 0.03659314 0.0036755651 -0.045377992 -0.05803597 -0.021016896 -0.012267515 0.043794237
0.013834566 -0.027367793 -0.036228713 0.0867653 0.064936526 -0.02162388 -0.006980434 -0.043616742
00000000: f0f5 38bc 01f5 aebd c08b 82bd e0c6 ba3c
00000010: f2f1 75bd a0c3 7d3b f032 82bd 9718 a3bd
00000020: d44d bdbc c9af acbd 012c 1cbd 4042 94bd
00000030: 1435 a3bc 30c1 2abd bc47 71bd 9dd9 69bd
00000040: a0e4 e93b 58f5 31bc 7fb9 aebd 4394 893d
00000050: 87e8 09bd f00f 68bc e7ca 2bbd 3cc7 03bd
00000060: b89f 0d3c d0cc fe3b d218 423d c800 ab3c
00000070: 786a f3bc bc70 ecbc 8e46 753d f2b6 633d
00000080: 8047 68ba ac67 023d e079 28bc fc5b e13c
00000090: 4f37 9a3d 1cbf 9abc 3ab8 6a3d 8e7e 653d
000000a0: 62f5 063d 30eb 07bc 7837 a3bd 5fa6 69bd
000000b0: 8663 3e3d bc37 803c f398 933d 5510 94bd
000000c0: 3ca4 b73c 7a98 1a3d 5798 96bd 211c 843d
000000d0: 8048 053c 6846 073c c073 b43b 3088 24bc
000000e0: 7f00 57bd a039 7dbb 37a1 62bd 4724 b03d
000000f0: 0061 dcbc 1af4 6cbd 0d38 63bd 406d b13c
00000100: e7fe a2bd b04e 9a3b 67ab 51bd bfe1 8a3d
00000110: 946a c9bc 9834 99bd cfd0 86bd 1073 85bb
00000120: deaf e0bc 817c 933d ae54 4b3d b418 e43c
00000130: d897 b4bd 32ed 593d 7a00 26bd 2645 553d
00000140: 3845 88bd 68ba b6bc 3f6c 58bd 4141 b33d
00000150: 41cf 813d c42c ba3c 581d 523c c0ba 8cbb
00000160: 2a60 abbd 1289 103d 86d4 783d 8485 a8bc
00000170: 897a 903d 50fd 79bc 3ac1 253d 99b3 a83d
00000180: ad6e 02bd 7ffc aabd 63b6 9f3d e8cf 333c
00000190: 013d 973d d7fa 56bd ec5a c33c 2612 173d
000001a0: 23fe 9b3d aa82 8dbd 0050 d5bb 8ad4 6b3d
000001b0: 4a13 37bd 603a 64bd b536 b3bd 00ab 983c
000001c0: 0fd2 4bbd 5cdf 3fbd f459 d2bc 40e1 36bd
000001d0: e4ca ad3c 6aa5 2b3d a19c 803d ae22 2a3d
000001e0: 9ae8 2e3d 162f b2bd ca40 4f3d 0772 8fbd
000001f0: 2838 823c be16 7f3d ba27 f1bc 4f80 8f3d
00000200: 68fc a9bd f5ab 27bd 304b 463c f28b 2f3d
00000210: e701 30bd 9050 6ebd ac1b c63c d8a1 a3bd
00000220: 7aa8 79bd ffd4 8d3d c040 9bbd a978 a73d
00000230: 2ad4 0dbd 23b2 37bd bcb7 83bc 8f62 823d
00000240: ee16 06bd 0ed4 3c3d ae17 7abd c5b7 8dbd
00000250: 9692 5a3d 8071 573a 1004 8bbb c04b 7f3c
00000260: 3a7a 3b3d 1e28 b1bd bed0 193d e89c d93c
00000270: 60c6 a0bb 0e04 90bd 9d46 9cbd 34f9 adbc
00000280: a650 4bbd 8a65 7f3d f82c 3e3c 73b5 913d
00000290: d511 913d 39ad 98bd a5fb b2bd cc3e bfbc
000002a0: 64ed 11bd 88d5 073d 5961 983d 8491 a63c
000002b0: c65b 373d 55ad 813d 39c7 813d 2860 d83c
000002c0: 9603 0e3d 7ded 22bd f88c 033c a54f 03bd
000002d0: 899a 33bd 9ef5 72bd 14bc c1bc 36c6 473d
000002e0: f092 fd3c c21f 473d 9e3f 343d 0092 58bc
000002f0: 9020 aabd 7624 423d b0f7 bbbb 3b27 b3bd
00000300: a032 f0bb a6c8 2e3d 5ecb 613d 2a64 6cbd
00000310: 1eb2 98bd 405d fdbb 4b94 42bd f0d5 9ebd
00000320: 23b3 64bd 08e2 86bc 3ccf dd3c 6d7a 9dbd
00000330: 80cc bfbb ee61 6abd 93eb ad3d 2e56 48bd
00000340: a0ff 6cbc 6d04 3ebd 20b7 1c3c 8f89 ad3d
00000350: 78e8 ed3c e602 7ebd 2890 e8bc 2bd3 8f3d
00000360: adb1 8ebd c8d2 413c b28a 683d da23 fbbc
00000370: ce9d 493d b659 7bbd f037 0bbc df08 a63d
00000380: eee8 063d 5af9 94bd 2003 58bb c8d2 e93c
00000390: 5481 c33c e0d3 c73b c8fc 6ebc 866d 4b3d
000003a0: 82a2 77bd 31a4 8e3d 49af 9e3d 9d49 9d3d
000003b0: 00a3 9b3a b106 b13d 52af 0f3d af59 8d3d
000003c0: 747a b2bc b0e2 153d c0e1 703b 46de 39bd
000003d0: 20b7 6dbd a02b acbc b0fd 48bc 9661 333d
000003e0: 60aa 623c 6c32 e0bc 8f64 14bd 01b2 b13d
000003f0: 71fd 843d 9024 b1bc 20bc e4bb 78a7 32bd
